dqn2.pth (torch, 6935 bytes, 6 tensors)

fc1.weight f4 [32, 3]
000000 b4 0e 13 bd b5 1e db bf c7 ec e1 bd 6e 04 81 39
       -0.035902694 -1.7118746 -0.1103149 0.00024608098
000010 fe 52 2b bd 20 22 5d bd 7f b4 e2 be 0f 6b cc be
       -0.041827194 -0.053987622 -0.44278333 -0.3992543
000020 6b e5 6a bd 93 8a b9 bc 0a 68 90 bf 7c e1 a1 be
       -0.057347696 -0.022649085 -1.128175 -0.31617343
000030 f6 5d 6c be dc 73 cd be 94 66 09 be 91 ec ba be
       -0.23082718 -0.40127456 -0.13418037 -0.3650861
000040 74 2c f8 be bc 9a 49 bd fc 69 39 bf d0 1d da be
       -0.48471415 -0.04921983 -0.72427344 -0.4260087
000050 18 c0 33 be 5c ea 3f be 5a 47 12 be f2 5c 04 bf
       -0.17553747 -0.18741745 -0.14285031 -0.51704323
000060 40 89 fb be 1f 41 cf bd aa 39 99 bf 65 df 33 bf
       -0.4912815 -0.10119843 -1.1970723 -0.7026275
000070 0c 86 d5 be 98 9d d9 bd bc f7 de be 66 c5 15 bf
       -0.41703832 -0.10625762 -0.4354838 -0.5850433
000080 7f c9 86 bb ea 50 8f be a3 3d 04 be de d0 74 be
       -0.0041133757 -0.2799142 -0.12914138 -0.23907802
000090 79 52 ab 3c 3e ed d6 bd 4b 7a 1d c0 24 e3 7c be
       0.02091335 -0.10494469 -2.4605892 -0.24696022
0000a0 ee f0 fc be b2 38 e6 bb 5a 25 2c bc a3 c7 74 be
       -0.49402565 -0.0070258016 -0.010506952 -0.2390428
0000b0 f7 61 6f bf 55 f2 9e be 20 82 c7 bc dc 2f 66 bf
       -0.9350886 -0.3104426 -0.02435404 -0.8991678
0000c0 f8 45 de be d4 f3 07 3f d4 7d 81 be 7e e5 c1 be
       -0.43412757 0.5310643 -0.25291312 -0.378704
0000d0 29 61 ad bb 20 4e 72 bf c1 47 67 bd b6 a8 05 bd
       -0.0052911234 -0.9465046 -0.056464914 -0.0326316
0000e0 2a 86 09 bd 47 19 98 bf d5 96 2c be 3a 74 fd bc
       -0.033575214 -1.1882714 -0.16854413 -0.03093921
0000f0 2c 22 d3 be f6 34 71 bb f4 24 98 be c6 23 72 bd
       -0.4123701 -0.0036805249 -0.29715693 -0.059116147
000100 8f 96 78 bf db 19 1d 40 67 ba a0 bc f7 0c 66 be
       -0.97104734 2.454703 -0.019620134 -0.22465883
000110 5d 34 02 c0 11 ab f5 be ef d7 7a be 67 63 7a bf
       -2.034446 -0.47982076 -0.24496435 -0.97807926
000120 57 c2 06 bf b4 82 ca bd 23 f7 82 be 56 59 d8 be
       -0.5264029 -0.09888211 -0.25579175 -0.42255658
000130 98 b3 8b be 30 20 10 bc 38 94 1c be 56 ee 09 bf
       -0.27285457 -0.008796737 -0.15290916 -0.53879297
000140 de b3 4f be 05 c4 d1 bd ce bd ec bc 04 84 78 bc
       -0.20283458 -0.10242466 -0.0288991 -0.015168194
000150 27 ba 1b be fa 0c 75 bc 21 e4 87 bf b5 77 c2 bf
       -0.1520773 -0.014956707 -1.0616494 -1.5192782
000160 ed d8 8b be f2 d5 c5 be c2 7c 2d be 4a 70 e7 be
       -0.2731394 -0.3863979 -0.16942123 -0.45202857
000170 3e f4 b6 bb 05 2d 3f be 82 8e 89 be af ae 0d 3f
       -0.005583315 -0.18669517 -0.26866537 0.5534467

fc1.bias f4 [32]
000000 6e 87 83 bc f1 ef eb be 74 1f b9 c0 63 b0 14 c1
       -0.016055789 -0.46081498 -5.7850895 -9.293063
000010 0e 68 d2 bd 31 9d a1 3f 96 c2 29 bc 60 1f 2e be
       -0.10273753 1.2626096 -0.010361334 -0.17004156
000020 b3 dc 98 bf 13 fb 0b be 9c 96 1f bf 8d b5 8d be
       -1.1942352 -0.13669996 -0.62339187 -0.27677575
000030 0f 00 4d c1 6f b2 4d bf 34 8c 16 bf ca 7b 04 bf
       -12.812514 -0.80350393 -0.58807683 -0.5175139
000040 71 ce ca 40 ee 5f c9 be 06 95 ab bf 67 62 16 bf
       6.3377004 -0.39331 -1.3404853 -0.587439
000050 0a 8f d7 be b7 87 12 40 43 9a a6 be 9f 93 b6 40
       -0.42101318 2.2895334 -0.32539567 5.70552
000060 be fc 5b c0 cc e7 88 bf 63 78 67 bc 27 aa 28 bf
       -3.4373012 -1.0695739 -0.0141278235 -0.6588463
000070 c1 7b eb be 71 7f 8e 3f 8c 70 69 bd ae cc 6b 40
       -0.45992854 1.1132642 -0.0569921 3.6843677

fc2.weight f4 [32, 32]
000000 98 a4 23 bd fe 1d 71 bd 4b 60 19 bd 60 10 ff bd
       -0.03995189 -0.058866493 -0.037445348 -0.12454295
000010 73 ee f6 bd f5 01 1a be 1d fa cb be 5a fb 83 bd
       -0.12057199 -0.15039809 -0.3983926 -0.06444426
000020 fc 47 d7 3d 82 8e a6 3d b3 1a 9c be 8c 42 10 be
       0.10511777 0.0813265 -0.3048912 -0.14087886
000030 ab 5d 4a bd 1e dd 8c be 88 43 bf be 88 be 8e be
       -0.049405735 -0.2751245 -0.3735621 -0.2787974
000040 fe 6d a6 be de 11 9a bd 6b 26 03 be 9e 18 cf 3c
       -0.32505792 -0.07522939 -0.12807624 0.025280293
000050 17 dd 6e be b8 ca 56 be 5e 31 ae bd 0f 57 b1 be
       -0.23326527 -0.20975769 -0.0850551 -0.34636733
000060 53 0f d2 be 1f 6b 21 bc 02 c4 a5 bd f4 cf f6 3d
       -0.41027316 -0.0098522 -0.08094026 0.12051383
000070 74 3a d3 bd ef 7b 82 bc 64 c9 1f be a2 7f b8 bd
       -0.103138834 -0.015928237 -0.15604168 -0.09008719
000080 99 06 82 be e4 4e 14 3e a3 83 f2 bd 4b 27 15 bd
       -0.2539566 0.1448322 -0.11841514 -0.036414426
000090 97 2a 2f bc 77 9b 1c bf af 58 52 ba 3d 74 31 3e
       -0.010691307 -0.6117472 -0.0008024079 0.17329498
0000a0 85 28 88 be b2 80 52 bd 17 b5 1c be 78 48 21 3e
       -0.26593414 -0.051392265 -0.15303455 0.15750301
0000b0 5a 1f 37 bf 4b 16 91 be 8f 43 20 3e 48 fc a8 bd
       -0.71532214 -0.2833732 0.15650772 -0.08251244
0000c0 37 0d 22 bd dc d4 17 be fb 13 c7 bd 2d ad fe bd
       -0.039563384 -0.14827293 -0.09720608 -0.124353744
0000d0 62 2c 35 be 9f 24 55 be 53 fe 17 3d b0 a2 7e bf
       -0.17692712 -0.20814751 0.037107777 -0.9946699
0000e0 f0 05 01 bf c2 16 db 3d 95 1c 26 3d 21 95 0f bd
       -0.50399685 0.106977 0.0405546 -0.03505433
0000f0 6f 72 19 be 4c 58 e5 bd 12 6f 62 be 4a f1 08 be
       -0.14985059 -0.11198482 -0.22112682 -0.13373294
000100 bb 89 27 be 01 5d 1e be 4b f1 7e be 86 e3 58 be
       -0.16361134 -0.15465166 -0.24896733 -0.21180543
000110 f5 a6 9d bc bc bb 9e be 61 28 0e be 55 ed 9e 3d
       -0.01924465 -0.31002605 -0.13882591 0.07760111
000120 ed 83 7c bc 48 f0 d4 bd 0f ed 2b be d7 91 26 3e
       -0.015412313 -0.103973925 -0.1678965 0.16266571
000130 cb a3 86 be 34 cc 92 be cd 04 82 be d3 9b 9b be
       -0.2629684 -0.2867142 -0.25394288 -0.30392322
000140 5f 0b 07 bf db f2 be 3d 29 33 26 be 75 e6 d4 3d
       -0.52751726 0.09323665 -0.16230454 0.10395519
000150 21 80 2e be fb a0 61 bd 27 60 b5 be e7 23 54 be
       -0.17041065 -0.055085164 -0.3542492 -0.2071682
000160 a6 ac 87 3d c0 26 8a 3d 47 68 7c bd dd 06 0e be
       0.06624727 0.06745672 -0.061622884 -0.13869806
000170 8f 65 26 be 70 96 cb ba b4 18 93 bd dd ec 23 be
       -0.16249679 -0.0015532505 -0.07182446 -0.16008325
000180 c3 e7 89 be f2 6b 23 be 70 7f 1c be 4e c7 35 bc
       -0.26934633 -0.15959147 -0.15282989 -0.011094881
000190 b7 a1 c6 bd 11 9a 1c be 24 eb ec bd 16 ea 1f be
       -0.096988134 -0.15293147 -0.11568287 -0.1561664
0001a0 1d ea 00 be 14 72 ae bd bb 9e 05 be 91 ee 5e bd
       -0.12589307 -0.085178524 -0.13048832 -0.054426733
0001b0 8f e6 df bd 4f c3 d8 bc b2 19 4d be 7e e7 23 bd
       -0.109326474 -0.026460318 -0.20029333 -0.04001569
0001c0 33 39 21 be d1 60 15 3e fb 2d 1c be 04 23 08 bd
       -0.15744476 0.14587714 -0.15251915 -0.03323652
0001d0 fc aa 14 be f8 d0 4e be 3f eb b0 3d cf 56 60 be
       -0.1451835 -0.20196903 0.0863862 -0.21908115
0001e0 dc 27 09 be 2a 0e ce 3a 31 65 96 be 24 b9 2f be
       -0.13394111 0.0015720774 -0.29374078 -0.1716047
0001f0 d6 b5 33 bd 92 95 8f be 9d ef 52 bb 18 ed de bd
       -0.043874584 -0.280438 -0.0032186278 -0.10885066
000200 37 14 93 be 54 06 22 bd 9b 4e ca 3c 12 1e 5d bb
       -0.2872636 -0.039556816 0.024695685 -0.0033739847
000210 d6 fd a1 be 59 94 3a be 9e ce 8c be 3f ff bf 3d
       -0.31638974 -0.18220653 -0.27501386 0.09374856
000220 6d 19 67 be bd b8 4b be 6a 54 4b bf e9 5d 98 3c
       -0.22568293 -0.19894691 -0.7942568 0.018599467
000230 90 37 29 be e8 5b a9 be f0 f0 be bc 4c 43 8e be
       -0.16525102 -0.3307793 -0.023308247 -0.27785718
000240 41 9a a7 be a0 5f 00 3d 56 9b 09 3d e3 f1 fb bc
       -0.32734874 0.031341195 0.033595406 -0.030754989
000250 af 7a 01 3e fa 09 29 bf 90 f1 32 bd 30 a6 d5 bf
       0.12644456 -0.6603085 -0.043687403 -1.6691341
000260 96 18 a9 be 80 d7 1a 3d 75 56 e3 be 11 f7 34 3d
       -0.3302657 0.037803173 -0.444019 0.044180933
000270 76 05 08 be 42 c1 83 be aa 52 01 bd 7a b6 8f bd
       -0.13283333 -0.25733382 -0.031572975 -0.070172265
000280 df da 96 3d 92 8a ec bd 10 1c 6b be 34 9f bf be
       0.07365965 -0.11549868 -0.22959924 -0.3742615
000290 a2 1f b7 bc a0 a9 af bd 9f a2 25 be ea 4d 0a 3e
       -0.02235395 -0.08577275 -0.16175316 0.13506284
0002a0 07 e5 80 bd 35 d0 05 be 8f 8d df be 4e 96 df 3c
       -0.062936835 -0.13067706 -0.43662688 0.02729335
0002b0 f5 ee 3d be c6 c4 d1 be ed 99 a9 3d e2 0f 16 be
       -0.18548186 -0.4097044 0.08281312 -0.14654496
0002c0 56 7a af be 7c 4a e0 bc 6a 53 af be 9e dd 94 bd
       -0.34273022 -0.027379267 -0.34243327 -0.072688326
0002d0 79 d0 c0 bd 0b d1 45 be 25 3a e6 bd 69 ab 95 be
       -0.09414763 -0.19318025 -0.11241559 -0.29232338
0002e0 cb e5 99 bc d1 f2 15 bd dd 3b d4 3d f3 c8 5f 3d
       -0.018786332 -0.03660852 0.103629805 0.054635
0002f0 ba e3 11 be 3d fb a0 be c1 aa 68 be d3 4e 47 be
       -0.14247027 -0.3144168 -0.22721387 -0.19463663
000300 0d 5c cf be d1 81 3b 3d 92 24 00 be ee 25 f5 bd
       -0.40499917 0.0457781 -0.1251395 -0.11970125
000310 ca b9 07 be 2a 79 15 be 23 ce cf bd 19 aa e4 3c
       -0.13254467 -0.14597002 -0.10146739 0.02791314
000320 65 29 b4 3d b5 da 06 be b9 94 58 bd a9 ef 60 3d
       0.08796958 -0.13169368 -0.052876208 0.054916058
000330 0a b1 cd bd 65 37 4f be ce 77 1e bb 85 27 9d 3d
       -0.10043533 -0.20235975 -0.0024180296 0.076735534
000340 19 71 86 be a7 62 e3 be ff 05 cf 3d ee 6c 19 bd
       -0.26258162 -0.44411203 0.101085655 -0.0374574
000350 09 99 4a be 10 39 73 be d0 34 c2 bd e6 51 9f be
       -0.19784941 -0.23752236 -0.094827294 -0.3111717
000360 ee df 89 be 2c 45 59 bb 66 4c b1 bd 61 ec 2c be
       -0.26928657 -0.0033152802 -0.0865715 -0.16887046
000370 98 b5 b5 3c 2d a7 85 be d8 66 da bd b2 45 e8 bd
       0.022181317 -0.26104107 -0.10664147 -0.11341418
000380 d0 01 c7 ba 64 60 ff 3d 96 fe c6 bd ed ac 92 be
       -0.0015183035 0.12469557 -0.09716527 -0.28647557
000390 eb cc 22 bd da 49 cc be ef 08 e6 3d 0f f6 fb 3c
       -0.039746206 -0.39900094 0.11232173 0.030756978
0003a0 6c 17 ef 3b 50 d1 ac 3c 39 18 f8 be 05 71 eb bd
       0.0072964933 0.021095902 -0.4845598 -0.11496166
0003b0 f1 bf b9 be bc cb a1 bd 75 3c 9d 3d 83 41 9a 3d
       -0.36279252 -0.079001874 0.07677547 0.075320266
0003c0 8f f2 4e be b7 f2 49 3c 77 6e b3 bd ba 73 23 bc
       -0.20209716 0.012325934 -0.08761304 -0.009976322
0003d0 88 c7 0b be 43 56 a5 be ff c4 8e 3d 95 1c 5a bf
       -0.13650334 -0.32292375 0.06971168 -0.8519986
0003e0 ac 38 11 be 30 d4 ab 3d 80 ab 5a bc 15 07 0a bd
       -0.14181775 0.08390081 -0.013346553 -0.03369816
0003f0 54 01 1d be 9c 69 16 bf 1d 29 dc bd b9 72 3b bd
       -0.15332538 -0.587549 -0.10750029 -0.045763705

fc2.bias f4 [32]
000000 1c da bd be 9e a2 9a be bd c8 00 bf ef 64 a8 be
       -0.37080467 -0.30202192 -0.503063 -0.32889506
000010 43 b3 e3 bf ec dc 2a bf 8c f4 b7 be 4f 7c 7b bf
       -1.7789081 -0.6674335 -0.35928762 -0.98236555
000020 ea 74 87 be 19 f8 8c bb f4 7b 08 bf 63 95 a9 be
       -0.26456386 -0.0043020365 -0.5331414 -0.33121786
000030 c3 7d 44 bf 8d 1a a7 bd fa 72 3f bf a4 ab 06 bf
       -0.767544 -0.08159361 -0.74784815 -0.5260565
000040 67 d9 1e bf 2a 0f 08 bd 1e 12 a2 be 98 d3 9a be
       -0.6205048 -0.033217587 -0.31654447 -0.30239558
000050 5a ff 7e be 68 4a 99 be 54 75 d7 be 11 13 04 bf
       -0.24902096 -0.2993958 -0.42081702 -0.51591593
000060 f3 54 c2 be 90 55 41 bf dd 13 d8 bc ef 0d 91 bf
       -0.37955436 -0.75521183 -0.026376659 -1.1332377
000070 9e e0 45 bf 66 80 5f bf b3 f0 aa be 2c 8e bd be
       -0.77295864 -0.87305295 -0.33386764 -0.3702253

fc3.weight f4 [3, 32]
000000 64 11 07 3e fa 3e 7b 3d f7 51 b8 3d be 29 02 3a
       0.13190228 0.061339356 0.090000086 0.00049653265
000010 5b 6b 09 3e 9b 74 0d be 6e 2b c3 bc 00 c1 6b bd
       0.13419859 -0.13814013 -0.02382442 -0.057557106
000020 3e 76 89 be c7 51 01 3e 6d a8 a4 3e 5e e2 43 3e
       -0.26848024 0.12628852 0.3215975 0.19129321
000030 9c 16 87 3c 22 b5 f1 bd 61 5c 7c 3e 94 26 dd bd
       0.016490273 -0.118021265 0.24644615 -0.10798374
000040 60 3d 2b bd 20 76 7c bd 72 0f 5d 3e 5f c0 40 3e
       -0.04180658 -0.06163609 0.21587923 0.18823384
000050 9f ab 3d 3d 23 0c b8 bc 22 44 8b 3d 58 53 d6 bc
       0.04630625 -0.022466725 0.06800105 -0.026162788
000060 cc 5f 1e bd 8b 99 b1 3c 30 0d cb 3d 00 d2 de 3d
       -0.038665578 0.02167966 0.09914625 0.10879898
000070 9a 71 1d be 85 ea 17 3e 91 6c 3e bc f5 f2 89 bc
       -0.15375367 0.14835556 -0.011622564 -0.016839484
000080 c9 28 84 bd 2e 8b 82 bc f6 5d 32 3d 66 bf 19 3e
       -0.06453092 -0.015935507 0.04354664 0.15014419
000090 0a 2c f2 3c 5e 2b 84 3d 48 3f 09 be 75 2f 85 3d
       0.029562015 0.06453584 -0.13403046 0.06503192
0000a0 46 e1 89 3b 76 38 51 3e 84 c2 40 3e f0 80 91 3d
       0.004207763 0.20431694 0.18824202 0.07104671
0000b0 14 84 2a bd ee 6b e9 3d 2a d9 f0 3d 2a 2a da bd
       -0.041629866 0.11397539 0.11760171 -0.106525734
0000c0 47 5e e2 3d f3 94 a3 3e 22 7f 8c be 23 a0 bc 3d
       0.11053138 0.31949577 -0.27440745 0.09210231
0000d0 a9 3f 3c 3d 3e 4c f4 bd 95 84 0b 3d 94 a8 12 be
       0.04595915 -0.119286045 0.034061987 -0.1432212
0000e0 e0 1f 19 be 0d e1 dd bd 5e 52 82 3e 2a d6 d4 3c
       -0.14953566 -0.10833941 0.25453466 0.025981028
0000f0 27 51 e2 bd 38 0a 91 3c 7f a6 0e bd ff 1a 52 be
       -0.11050635 0.017705068 -0.03482675 -0.2051811
000100 df a1 b8 3c 33 b8 ef 3a ff 87 54 bc 81 f9 80 3d
       0.022538124 0.0018289149 -0.012971877 0.06297589
000110 df 54 3a be 76 01 d3 3d c2 3c 07 bc 98 4a 09 be
       -0.18196438 0.10303013 -0.008254232 -0.13407362
000120 9b e8 38 3e 36 32 80 3e af 80 1c 3e 36 4f 39 be
       0.18057482 0.25038308 0.15283464 -0.18096623
000130 55 88 fa 3d f8 62 67 bd 53 90 7a bd dd 6c 55 bc
       0.122330345 -0.05649087 -0.061172795 -0.013026443
000140 b0 a0 c4 3d d9 e7 96 3d 64 bc 0d 3d e0 9b 1b bd
       0.09600961 0.0736844 0.03460349 -0.03799045
000150 3e dd 07 3e f2 f7 c6 bd 51 8c 09 3e f1 94 f3 3d
       0.13267991 -0.097152606 0.13432433 0.11893643
000160 60 ad 9f bd 4f 1d 31 3d 02 ad 24 3d 26 ba 14 3e
       -0.077967405 0.04324084 0.040204056 0.14524135
000170 b2 b5 15 3d a5 bb 25 be 0e c5 94 bd 83 aa d3 3d
       0.03655023 -0.16184862 -0.07264148 0.10335257

fc3.bias f4 [3]
000000 a1 94 a7 3c 00 9c a7 3c 91 0f a9 3c
       0.020456614 0.020460129 0.020637305
