dqn_model.pth (torch, 72471 bytes, 6 tensors)

fc1.weight f4 [128, 6]
0	0xbd375b82	-0.044765003
1	0xbf1c8169	-0.61134964
2	0xbe05ef6d	-0.13079615
3	0xbed48d13	-0.4151388
4	0xbd5b768a	-0.053579845
5	0x3ca7c04e	0.02047744
6	0xbf071733	-0.52769774
7	0xbe8de621	-0.27714637
8	0xbd4b1d55	-0.04958852
9	0xbce580d1	-0.028015526
10	0x39968f58	0.0002871703
11	0xc0f99cb9	-7.800381
12	0xbd5f64a0	-0.054539323
13	0xbda27255	-0.07931963
14	0xbf70bcdf	-0.94038194
15	0xbba6377f	-0.0050725336
16	0xbf9fdeaf	-1.2489833
17	0xbf1b2556	-0.60603845
18	0xbec7d563	-0.3902999
19	0xbd0a0eab	-0.033705395
20	0xbf0a872a	-0.54112494
21	0xbf3ea2bd	-0.7446707
22	0x3f6c6a44	0.9234965
23	0x3eafaf40	0.34313393
24	0xbd50832f	-0.050906356
25	0xbe64fb33	-0.2236145
26	0x3d48e08b	0.049042266
27	0xbe1fa7e2	-0.15591386
28	0xbeca3ad8	-0.3949802
29	0x3df0ad0e	0.117517576
30	0xbe82217b	-0.2541617
31	0xbf2489f4	-0.64273
32	0x3db30bb8	0.087424695
33	0x3c68d3bf	0.01421064
34	0xbe3ec60a	-0.18630233
35	0x3f83c22a	1.0293629
36	0xbb5fe78f	-0.003416512
37	0xbfa8e4b7	-1.3194798
38	0xbef96ed3	-0.48717365
39	0xbbbaafe2	-0.0056972364
40	0xbed43695	-0.41447893
41	0xc059d924	-3.4038782
42	0xbe939ef8	-0.2883222
43	0xbf090325	-0.53520423
44	0x3f32f3f9	0.6990352
45	0x3dd6f15c	0.104952544
46	0x3e96179b	0.29314885
47	0xc10d77e3	-8.841769
48	0xbe2d1fd8	-0.16906679
49	0xbeb3bb00	-0.35103607
50	0xbdb91fbc	-0.09039256
51	0xbdaca531	-0.08429945
52	0x3e0c769a	0.13717118
53	0xbd1b7010	-0.037948668
54	0xbf1f93f6	-0.62335145
55	0xbe802099	-0.2502487
56	0x3e5fe8c9	0.21866144
57	0xbf28c54c	-0.6592605
58	0xbf88cfb2	-1.0688384
59	0xc0909fa9	-4.51949
60	0xbca4d089	-0.020118969
61	0xbefa7a43	-0.48921403
62	0xbeba933f	-0.36440465
63	0xbe22fee3	-0.15917544
64	0xbf8b85a8	-1.0900164
65	0x3c335d32	0.010947512
66	0xbec5eab8	-0.3865564
67	0xbe0d0b59	-0.1377386
68	0x3d586ff6	0.05284115
69	0xbe05d8ad	-0.13070937
70	0xbd2ee0a3	-0.0426947
71	0xbf44341e	-0.76642025
72	0xbf3631f1	-0.71169955
73	0xbf3e27a9	-0.74279267
74	0x3ecbe8af	0.3982596
75	0xbe52e298	-0.20594251
76	0xbf597fed	-0.84960824
77	0xc038d6b2	-2.888104
78	0xbe584f3a	-0.21123973
79	0xbe9cb79f	-0.30608842
80	0xbf4306a5	-0.76182014
81	0x3d77f5c4	0.060537115
82	0xbe4bac4f	-0.1988995
83	0x3e5acb3e	0.21366593
84	0x3ca10551	0.019655855
85	0xbf9ca5a5	-1.2238051
86	0xbf3b1d2a	-0.73091376
87	0xbe267379	-0.16254987
88	0xc007561b	-2.1146305
89	0x3e89a697	0.2688491
90	0xbe3080e7	-0.17236672
91	0xbf44bad5	-0.76847583
92	0x3e2a1557	0.16609703
93	0xbee76aab	-0.4519857
94	0xbf230a9c	-0.63688064
95	0xbf2f883b	-0.68567246
96	0xbefd9cfd	-0.49533835
97	0x3e320725	0.17385538
98	0xbefe65c4	-0.49687016
99	0xbf33dd07	-0.70259136
100	0xbcc635e6	-0.024195623
101	0x3cfc30dc	0.030785017
102	0xbd9e0f30	-0.077177405
103	0x3b13d917	0.0022559816
104	0xbf227981	-0.6346665
105	0xbe9d456c	-0.30717027
106	0xbe0c4c95	-0.13701089
107	0xbebf3a24	-0.37349045
108	0xbefa760c	-0.48918188
109	0xbe18d0f4	-0.1492346
110	0x3c4f46b4	0.012651134
111	0xbc99ede6	-0.018790197
112	0x3e3da591	0.1852019
113	0xc0844c30	-4.1343
114	0xbfb406c9	-1.4064571
115	0x3dfedc2a	0.12444337
116	0xbe2c64f7	-0.1683539
117	0xbe1940e4	-0.1496616
118	0xbf05d8e0	-0.5228405
119	0xc00bb17b	-2.1827075
120	0xbd2328f4	-0.039833978
121	0xbf01b08a	-0.5066
122	0xbd751c33	-0.059841346
123	0xbe8743e8	-0.26418996
124	0xbf01e8a7	-0.50745624
125	0xbe8d51bd	-0.27601424
126	0x3c373223	0.011181387
127	0xbea00cbf	-0.31259724
128	0xbef86f5b	-0.48522457
129	0xbcbcde63	-0.023055261
130	0xbf5264ca	-0.8218504
131	0xbd02ade6	-0.031904124
132	0xbf11f2be	-0.5701102
133	0xbda50bd4	-0.08058897
134	0xbdf4e325	-0.11957387
135	0xbce08093	-0.027405059
136	0xbe622bdc	-0.22087044
137	0xbf855fb8	-1.0419836
138	0xbee9c0f5	-0.45655027
139	0x3e592036	0.21203694
140	0xbf352961	-0.70766264
141	0xbe9f9d5f	-0.31174752
142	0x3f1c3524	0.61018586
143	0xc021c1f1	-2.5274622
144	0xbce453aa	-0.027871925
145	0xbe4c0fd6	-0.19927916
146	0xbecfaf1f	-0.40563294
147	0xbeb0f88c	-0.34564626
148	0x3d71ee6f	0.05906528
149	0x3e7e3552	0.24825028
150	0xbe460acd	-0.19340058
151	0x3ad67af3	0.0016363546
152	0xbf7d8a3f	-0.9903907
153	0xbd285dfc	-0.041105255
154	0x3f15ab55	0.58464557
155	0xbe9d5520	-0.30729008
156	0xc01326ad	-2.2992356
157	0xbd1eae4e	-0.03874045
158	0xbed98471	-0.42483857
159	0xbaeba5ab	-0.001797845
160	0x3e7515d1	0.23934104
161	0xbfb404fd	-1.4064022
162	0xbf30142f	-0.687808
163	0xbf464516	-0.77449167
164	0x3dcab841	0.09898425
165	0x3d6c1353	0.057635617
166	0x3d8dc816	0.06922929
167	0x3fce5b81	1.6121675
168	0xbe3e0969	-0.18558277
169	0xbf39a558	-0.7251792
170	0x3dac3777	0.084090166
171	0xbdec86c5	-0.11549143
172	0x3e8ab207	0.2708895
173	0x3f5e002e	0.86719024
174	0xbecce77e	-0.40020365
175	0xbea88eb8	-0.32921386
176	0x3eb297cb	0.34881434
177	0xbf659be1	-0.8969098
178	0x3ee05387	0.43813726
179	0x3f715bd9	0.94280773
180	0xbe90c7fb	-0.28277573
181	0x3d97287e	0.0738077
182	0xbf001a3c	-0.5004003
183	0xbe7bbd4e	-0.24583933
184	0x3cebfc7b	0.028806916
185	0xbf013f83	-0.50487536
186	0xbdae5dfe	-0.08514021
187	0xbe648186	-0.22315034
188	0x3bc0882c	0.005875608
189	0xbf139ba2	-0.5765935
190	0x3dc5ad01	0.096521385
191	0x3f3eef2c	0.745837
192	0xbddd5ca0	-0.108086824
193	0xbf20a2a7	-0.6274819
194	0xbd72023e	-0.05908417
195	0xbbe53742	-0.0069951126
196	0x3c25c681	0.010118128
197	0x3eb88001	0.3603516
198	0xbf0256f7	-0.5091395
199	0xbf533077	-0.82495826
200	0xbd98d638	-0.07462734
201	0xbc10146b	-0.0087939305
202	0x3eb8b1d9	0.36073187
203	0xbfb102a2	-1.3828928
204	0xbe657e63	-0.22411494
205	0xbe9aa73d	-0.30205718
206	0xbd11c305	-0.035586376
207	0xbe80c0ac	-0.25146997
208	0xbe1c3a0c	-0.15256518
209	0xbe369456	-0.17830023
210	0xbc1b41e6	-0.009476161
211	0xbeb1ed73	-0.34751472
212	0xbe18d331	-0.14924313
213	0xbab87999	-0.0014074325
214	0xbf1fcd9e	-0.6242312
215	0xbef03ea2	-0.46922785
216	0xbcb1601e	-0.021652278
217	0xbde11fa1	-0.10992361
218	0xbf70d098	-0.9406829
219	0xbdf82db6	-0.12118094
220	0xbf965eb5	-1.1747652
221	0xbd8ec5ce	-0.06971322
222	0xbf864e1f	-1.0492591
223	0xbf1b25d6	-0.6060461
224	0xbeddac11	-0.4329534
225	0xb978fe9d	-0.00023745974
226	0xbe0f254c	-0.13979071
227	0x3e0311f9	0.12799825
228	0xbc660923	-0.014040264
229	0xbeca74e8	-0.39542317
230	0xbeb7a72b	-0.35869727
231	0xbf4c25b3	-0.79745024
232	0xbc9251f7	-0.01786135
233	0x3e287864	0.16452175
234	0xbde9a2c3	-0.114079975
235	0xbf71c9c3	-0.9444849
236	0x3de0b65c	0.10972282
237	0xbee4fedf	-0.447257
238	0xbf583002	-0.84448254
239	0xbd0d4504	-0.034489647
240	0xbee30456	-0.44339246
241	0xbd20a8db	-0.039223533
242	0xbe1e355b	-0.15450041
243	0xbdc72e11	-0.09725583
244	0x3e9f19c5	0.31074348
245	0xc01d115e	-2.454185
246	0xbebeb6c1	-0.37248805
247	0xbec2598a	-0.37958938
248	0xbd56fa6c	-0.052484915
249	0xbebc1ba3	-0.36739835
250	0xbe6dffbe	-0.23242089
251	0x3cbd6e63	0.023123926
252	0x3b3e2a14	0.002901678
253	0xbf75c817	-0.9600844
254	0xbe962421	-0.2932444
255	0xbe32237e	-0.17396352

fc1.bias f4 [128]
0	0xbf1335af	-0.5750379
1	0x3d9248f1	0.07142819
2	0xbefdaf27	-0.49547693
3	0x3e5e35b8	0.2170018
4	0x3e3f75ad	0.18697233
5	0xbee65fc8	-0.4499495
6	0xbef91357	-0.48647568
7	0x3f128bbc	0.5724447
8	0x3e73c9fa	0.23807517
9	0x3ba67b9f	0.0050806548
10	0xbf2b04ad	-0.6680401
11	0xbec9fefb	-0.39452347
12	0x3ec7038d	0.38869897
13	0xbea619b2	-0.3244148
14	0xbf436d02	-0.7633821
15	0xbdf6e9ee	-0.12056337
16	0x3d32e2f4	0.04367347
17	0xbdf3f707	-0.11912351
18	0xbe36aed5	-0.1784013
19	0xbec59c68	-0.3859589
20	0x3d4d5eda	0.050139286
21	0xbf274d0b	-0.65351933
22	0x3d8aacb7	0.06771224
23	0x3dea7822	0.11448695
24	0x3cc8b6d9	0.024501251
25	0x3f6a94c6	0.9163326
26	0xbdc70fc7	-0.09719806
27	0x3da2fc4e	0.079582796
28	0xbee51523	-0.4474269
29	0xbe425a7d	-0.18979831
30	0xbeb2424a	-0.348162
31	0xbebec64b	-0.3726066
32	0x3e73dc92	0.2381461
33	0xbd8183db	-0.063239776
34	0x3e107e3b	0.14110653
35	0xbe5d231b	-0.21595423
36	0xbe0717ed	-0.1319272
37	0xbf2aa9b6	-0.6666521
38	0x3e5ee6a2	0.21767667
39	0xbf2b1b0c	-0.66838145
40	0xbedb0e97	-0.4278457
41	0x3e74f48c	0.23921412
42	0xbea867c6	-0.32891673
43	0x3eb69369	0.3565934
44	0xbf0facec	-0.5612323
45	0xbf5f5bc3	-0.8724939
46	0x3e3884ae	0.18019363
47	0xbf59c0cb	-0.85059804
48	0xbe98b23c	-0.29823482
49	0xbe5bae47	-0.214532
50	0xbe8a34ac	-0.2699331
51	0xbec95e50	-0.39329767
52	0x3ec3c840	0.38238716
53	0x3ccfeb9e	0.025380906
54	0xbea1ecef	-0.31626078
55	0xbe6aa628	-0.22914946
56	0xbe51c9ec	-0.20487183
57	0xbf628759	-0.88487774
58	0x3e3e2ffe	0.18572995
59	0xbd864325	-0.065557756
60	0xbe4aaabe	-0.19791695
61	0xbeb59032	-0.35461575
62	0x3e906a43	0.2820607
63	0xbf004d61	-0.5011807
64	0x3eef146b	0.46695265
65	0x3ebdf4d5	0.37100855
66	0xbe1766b1	-0.14785267
67	0xbec5af6b	-0.38610396
68	0xbede19b6	-0.4337899
69	0xbe4a1e20	-0.19738054
70	0x3e7ebecf	0.24877475
71	0xbf1e6a69	-0.6188112
72	0xbf38756d	-0.7205418
73	0xbe5831ca	-0.21112743
74	0xbe609dae	-0.2193515
75	0xbe6a9523	-0.22908454
76	0xbf3a3385	-0.7273486
77	0x3e3a0c94	0.1816886
78	0xbe92947a	-0.28628904
79	0xbca04e0b	-0.019568464
80	0xbf46ff18	-0.7773299
81	0x3f880199	1.0625488
82	0xbf363777	-0.7117838
83	0xbdc899f2	-0.09794988
84	0xbe8c502b	-0.27404913
85	0xbf45a5b4	-0.7720597
86	0x3ecb3570	0.39689207
87	0xbedce00a	-0.43139678
88	0xbf1d88c6	-0.61536825
89	0xbefac5ed	-0.4897913
90	0xbead94c0	-0.3390255
91	0x3f04b3e7	0.5183701
92	0x3d8a4824	0.06752041
93	0xbd450f1b	-0.04811011
94	0xbee0ae16	-0.43882817
95	0xbdb6e16a	-0.08929713
96	0x3e565ff4	0.2093504
97	0xbe96c555	-0.29447427
98	0xbe831c6f	-0.2560763
99	0x3e75146b	0.2393357
100	0xbf818e1e	-1.0121496
101	0xbeb03430	-0.34414816
102	0xbf218261	-0.6308957
103	0xbcabf1cc	-0.020989321
104	0xbe6bb2d4	-0.23017436
105	0xbdec8d72	-0.11550416
106	0x3d85185b	0.06498786
107	0xbf42dd0b	-0.76118535
108	0xbf1aaa5a	-0.60416186
109	0xbe32db77	-0.17466532
110	0xbfce7f09	-1.6132518
111	0xbe72e008	-0.23718274
112	0x3ce3aa91	0.027791293
113	0x3f4222fb	0.75834626
114	0xbf031a14	-0.5121167
115	0xbd6dc95f	-0.05805337
116	0xbf3a8290	-0.7285547
117	0xbec2aeaa	-0.38023883
118	0x3e9953d1	0.2994676
119	0x3dcb6078	0.09930509
120	0xbf82bc8e	-1.0213792
121	0x3ef1225b	0.47096524
122	0xbeaaa5d1	-0.33329633
123	0x3c1c7de9	0.009551504
124	0x3f029640	0.51010513
125	0xbeed2999	-0.463208
126	0x3cf2dd8a	0.029646654
127	0xbefaaa3b	-0.48958

fc2.weight f4 [128, 128]
0	0xbe8c2679	-0.27373102
1	0xbd10086a	-0.035164274
2	0xbcdd4f60	-0.027015388
3	0x3cf52dee	0.029929128
4	0xbd813f1f	-0.063108675
5	0x3d6c7a47	0.0577338
6	0xbe239a2d	-0.15976782
7	0xbe7cc077	-0.24682795
8	0xbd03e300	-0.032198906
9	0xbcc15085	-0.023597965
10	0x3cff472e	0.03116187
11	0xbd86e219	-0.065860935
12	0xbdac8aef	-0.08424937
13	0xbd987541	-0.074442394
14	0x3c3a40a3	0.01136795
15	0xbde35d09	-0.111017294
16	0xbb428316	-0.0029680184
17	0xbc563cbd	-0.013076005
18	0xbc0a749d	-0.008450654
19	0xbbcbfc97	-0.0062251794
20	0xbe85c67a	-0.26127988
21	0xbab684d4	-0.0013925084
22	0xbd71f1c0	-0.05906844
23	0xbe4b6d4b	-0.1986591
24	0xbcf232a3	-0.029565161
25	0x3c31c038	0.010849051
26	0xbda678a0	-0.08128476
27	0x3d37c4eb	0.04486553
28	0xbdc4820f	-0.09595119
29	0x3cce7a1d	0.025204713
30	0x3c87b42c	0.016565405
31	0xbdea0212	-0.11426176
32	0xbb85cc78	-0.0040832125
33	0xbd23ce24	-0.039991513
34	0xbda9ddd6	-0.08294265
35	0xbcdcbd74	-0.026945807
36	0x3ccff3f8	0.025384888
37	0x3dd25b53	0.10271325
38	0xbd9a1165	-0.07522849
39	0xbd9281d8	-0.07153672
40	0xbdecdf93	-0.11566081
41	0x3d9a0661	0.07520748
42	0x3b81c3d7	0.0039601135
43	0x3d9789ca	0.07399328
44	0xbd9da862	-0.07698132
45	0xbe0ccb3d	-0.13749404
46	0xbdbd94c7	-0.09256893
47	0xbdb72c06	-0.08943944
48	0x3d58faad	0.052973438
49	0x3cde9ffb	0.027175894
50	0xbc6aa3de	-0.014321296
51	0x3d980f03	0.07424738
52	0xbcb50ef6	-0.02210186
53	0xbb8d5308	-0.0043128766
54	0xbcf77710	-0.03020814
55	0x3aa877f0	0.0012853127
56	0xbe28bcf1	-0.16478325
57	0xbb90da2a	-0.0044205384
58	0x3dfe0c0a	0.1240464
59	0xbc6f8d9b	-0.014621164
60	0xb9e2500d	-0.00043165722
61	0x3b540f9c	0.0032357937
62	0x3d41e0ae	0.047333412
63	0xbd89e92f	-0.06733929
64	0x3c60a67d	0.013711569
65	0x3ccd8528	0.025087908
66	0xbb637524	-0.0034707272
67	0xbc9a5da8	-0.018843487
68	0x3cdd2f55	0.027000109
69	0xbd732223	-0.059358727
70	0x3cf55422	0.029947344
71	0xbafbcae5	-0.0019210248
72	0xbda88bf6	-0.082298204
73	0x3d0380f8	0.032105416
74	0xbd91e6bd	-0.07124088
75	0xbd353ca3	-0.04424728
76	0xbe46ff46	-0.19433317
77	0xbda0e812	-0.07856764
78	0xbdbee308	-0.093206465
79	0xbd0d4925	-0.034493584
80	0xbd9e41e1	-0.07727409
81	0x3c35d8b6	0.011099031
82	0xbda171e8	-0.07883054
83	0xbd864a35	-0.065571226
84	0xbd125b92	-0.03573186
85	0x3d374d9d	0.044751752
86	0xbd9b7dd0	-0.07592356
87	0xbc27b0fb	-0.0102350665
88	0xbd5d4c8d	-0.054028083
89	0xbb0cde18	-0.0021494683
90	0xbd0f1f27	-0.03494182
91	0xbc02be04	-0.007979874
92	0x3e247596	0.1606048
93	0x3da8abd9	0.08235902
94	0xbdf303c9	-0.11865956
95	0x3c2934e3	0.010327551
96	0xbd418cfe	-0.0472536
97	0x3d3875c1	0.045034174
98	0x3b8016e6	0.0039089797
99	0x3d346608	0.044042617
100	0xbdca4161	-0.09875751
101	0x3ccfd15e	0.025368389
102	0x3c8d62d1	0.017259033
103	0x3d1664aa	0.036717094
104	0xbdf195b5	-0.117961325
105	0xbc97e4c1	-0.018541696
106	0xbdfd20c0	-0.12359762
107	0xbd4b4a57	-0.049631443
108	0xbde85aff	-0.11345481
109	0xbc0ed15d	-0.008716908
110	0xbe1c3835	-0.15255816
111	0xbe357c04	-0.1772309
112	0x3b4c4238	0.00311674
113	0xbd14fb97	-0.036372747
114	0xbdafab7b	-0.08577629
115	0xbd91f9cd	-0.07127724
116	0x3d147100	0.036240578
117	0xbccc7849	-0.0249597
118	0x3d6f6980	0.058450222
119	0xbc1aa9b1	-0.009439872
120	0xbb52a4a2	-0.0032141586
121	0xbe117b3e	-0.1420717
122	0xbd005613	-0.031332087
123	0x3d52554c	0.051350877
124	0xbc19a9a0	-0.009378821
125	0xbdabb083	-0.08383276
126	0x3dcb09ff	0.09914016
127	0x3ca17eb1	0.019713731
128	0xbe8e0032	-0.27734524
129	0xbddf9f57	-0.109190635
130	0x3d5337f7	0.051567044
131	0xbd21ba48	-0.039484292
132	0x3d85ea95	0.065388836
133	0x3d720705	0.059088726
134	0xbe02e660	-0.12783194
135	0xbf28ccf9	-0.65937763
136	0x3d1bb2b1	0.03801221
137	0x3c9857e5	0.018596599
138	0xbde30367	-0.11084633
139	0xbbb97d6e	-0.0056607043
140	0xbdc251d9	-0.094882675
141	0xbd118b3a	-0.035533167
142	0xbc98d9c0	-0.018658519
143	0xbce704ed	-0.028200591
144	0xbd274f97	-0.040847387
145	0xbdbac134	-0.09118882
146	0xbdc0fcd5	-0.09423224
147	0xbd827421	-0.06369806
148	0xbdb006a0	-0.085950136
149	0xbc3666f7	-0.011132947
150	0xbcac7de9	-0.021056132
151	0xbf04e394	-0.51909757
152	0xbd9c0a6c	-0.07619175
153	0x3d103f12	0.0352164
154	0xbd8a4185	-0.06750778
155	0x3d978e9a	0.07400246
156	0x3a74e365	0.0009341746
157	0xbd00a62b	-0.03140847
158	0x3dd40c91	0.10353959
159	0xbb419627	-0.002953896
160	0xbd2d3e55	-0.042295773
161	0xbd9a4623	-0.07532909
162	0x3da6a57f	0.081370346
163	0xbda80d7c	-0.08205697
164	0xbd783e07	-0.06060603
165	0xbd4bd13a	-0.04976008
166	0x3e90a2d5	0.2824923
167	0xbd7534bd	-0.05986475
168	0x3d7286f2	0.059210725
169	0x3daf83ee	0.085700855
170	0xbd86c97f	-0.06581401
171	0x3d061f9a	0.03274498
172	0xbdfa0012	-0.12207045
173	0xbddf2a3f	-0.1089673
174	0xbe0f4f23	-0.13995032
175	0xbd8cecc4	-0.06881097
176	0x3dbbdf87	0.09173494
177	0x3d85d5e0	0.06534934
178	0xbd80233a	-0.06256719
179	0x3d8f65dd	0.07001851
180	0xbde843b7	-0.113410406
181	0xbd334962	-0.043771155
182	0xbcfa2ec4	-0.030539878
183	0xbd9878f0	-0.07444942
184	0xbd56e18b	-0.05246119
185	0xbe0a8797	-0.13528286
186	0x3d034987	0.032052543
187	0xbdd27d10	-0.1027776
188	0x3d4a26e3	0.04935349
189	0x3c86a6c4	0.016436942
190	0x3da87064	0.08224562
191	0xbdb2c7cb	-0.08729514
192	0xbd8173d8	-0.063209236
193	0x3d349ac6	0.044092916
194	0xbdbc4a77	-0.091938905
195	0xbd2aa7b0	-0.041663826
196	0x38117763	3.468188e-05
197	0xbe18fb49	-0.14939608
198	0xbc3e85e4	-0.011628602
199	0x3d72f2b5	0.059313495
200	0xbd9d62fc	-0.076848954
201	0xbca1bc2b	-0.019743046
202	0xbd2da0a8	-0.042389542
203	0x3beae6e5	0.007168638
204	0xbe9e7d1f	-0.30954835
205	0xbc995043	-0.01871503
206	0xbd909601	-0.07059861
207	0x3d009a6b	0.031397264
208	0xbc56cb1f	-0.013109951
209	0xbe8366d3	-0.25664386
210	0xbdea3c7b	-0.11437317
211	0xbda352f5	-0.07974807
212	0xbd85e04a	-0.0653692
213	0x3b90442d	0.0044026584
214	0xbe07b0a1	-0.13250972
215	0xbda5a8b9	-0.08088822
216	0xbc691d41	-0.014228166
217	0xbd002e0d	-0.031293917
218	0xbe0c6f60	-0.13714361
219	0xbdfd42f2	-0.123662844
220	0xbd18d7b1	-0.037315074
221	0x3e3b2d12	0.18278912
222	0xbd222882	-0.039589413
223	0xbc99480b	-0.01871111
224	0xbd7179c0	-0.058954
225	0xbb94c720	-0.004540339
226	0x3aec2ef0	0.001801936
227	0x3db7f62a	0.08982499
228	0xbe5be8a9	-0.21475472
229	0x3d0fcee0	0.0351094
230	0x3d628767	0.05530491
231	0xbe0ca48a	-0.13734642
232	0xbde097b0	-0.10966432
233	0xbd38851e	-0.045048825
234	0xbdccd4d6	-0.10001533
235	0xbd83e049	-0.064392634
236	0x3d1e72ff	0.038683888
237	0xbcb14b94	-0.021642484
238	0xbddb3ec5	-0.10705332
239	0xbc8e20ea	-0.017349679
240	0x3da2e6a3	0.07954147
241	0xbe8b47aa	-0.27203113
242	0x3d26e454	0.040745094
243	0xbd8593e2	-0.06522347
244	0x3d91a2ba	0.07111116
245	0xbc1e84b4	-0.009675194
246	0x3e6909e1	0.22757675
247	0x3d6040b2	0.0547492
248	0xbe9fe24e	-0.31227344
249	0xbeb20ce2	-0.34775454
250	0xbdde5c5f	-0.10857462
251	0x3d740882	0.059578426
252	0xbd941a37	-0.072315626
253	0xbc80da23	-0.015729016
254	0x3c3f2379	0.011666172
255	0xbdc9b781	-0.09849454

fc2.bias f4 [128]
0	0xbeec8623	-0.46196088
1	0xbee7e11b	-0.4528893
2	0xbe3a9ffa	-0.18225089
3	0xbf0107ae	-0.50402343
4	0xbec12833	-0.37725982
5	0x3ef83b09	0.4848254
6	0xbf158cb5	-0.58417827
7	0xbea7afcc	-0.3275131
8	0xbe860050	-0.26172113
9	0xbe879cdd	-0.26486865
10	0xbe87b8b2	-0.265081
11	0xbecba7b4	-0.39776385
12	0x3ea1783f	0.31537053
13	0xbe1208be	-0.14261147
14	0x3e81e52f	0.25370166
15	0xbea5006e	-0.3222689
16	0xbe70eb3b	-0.23527233
17	0xbebac46f	-0.36477992
18	0xbe3bb729	-0.18331589
19	0xbe5b3840	-0.21408176
20	0xbe7f16c5	-0.2491103
21	0x3f4ffb9e	0.8124331
22	0xbebe8099	-0.37207487
23	0xbf2b5921	-0.66932875
24	0xbe6e3572	-0.23262575
25	0x3e2f7582	0.1713467
26	0xbe92b7c5	-0.2865583
27	0xbeb84b44	-0.35994923
28	0xbe3e48f8	-0.18582523
29	0xbf01ce3c	-0.50705314
30	0xbe8fe913	-0.2810751
31	0xbf25a101	-0.646988
32	0xbf9aee9e	-1.210407
33	0x3e292849	0.16519274
34	0xbea0f243	-0.3143483
35	0xbfbe913a	-1.488807
36	0xbe43f272	-0.19135454
37	0x3eca7a07	0.39546224
38	0xbf0b110c	-0.54322886
39	0xbe9cc227	-0.30616876
40	0xbe866c97	-0.26254722
41	0xbde573c7	-0.112037234
42	0xbeda3a78	-0.42622733
43	0xbd196ee1	-0.037459258
44	0xbeb98854	-0.36236823
45	0xbeaf8473	-0.34280738
46	0xbea69a66	-0.32539672
47	0xbea80244	-0.3281423
48	0xbe399764	-0.18124157
49	0xbe862333	-0.2619873
50	0xbd9bf014	-0.07614151
51	0xbec5848f	-0.38577697
52	0x3f708a04	0.93960595
53	0xbeb67a70	-0.35640287
54	0xbf105dd8	-0.56393194
55	0xbeea55c7	-0.45768568
56	0xbe08ec82	-0.1337147
57	0xbf46e82b	-0.7769801
58	0xbdb3c92a	-0.087786034
59	0xbfcccc30	-1.5999813
60	0xbe941f1d	-0.28929988
61	0xbe916154	-0.28394568
62	0xbe97e703	-0.29668435
63	0xbea7aa18	-0.3274696
64	0xbf4a8faa	-0.79125464
65	0xbe4b55dc	-0.19856972
66	0xbe854c27	-0.26034662
67	0xbeb6a6e7	-0.3567421
68	0xbf0caed4	-0.54954267
69	0xbe9413f2	-0.28921467
70	0xbf70ec44	-0.9411051
71	0xbe91023e	-0.28322023
72	0xbe8c812f	-0.2744231
73	0xbf429827	-0.76013416
74	0xbe8dd016	-0.2769782
75	0xbe9307d2	-0.28716904
76	0xbe6111a3	-0.21979384
77	0xbed56617	-0.4167945
78	0xbec9830c	-0.39357793
79	0xbe9ebb4a	-0.31002265
80	0x3f316d37	0.69307274
81	0x3f4774ab	0.77912396
82	0xbeb98737	-0.36235973
83	0xbe304d19	-0.1721691
84	0xbf683c89	-0.9071737
85	0xbe047286	-0.12934312
86	0xbe705464	-0.23469692
87	0x3e539939	0.20663919
88	0xbe883fce	-0.2661118
89	0xbed3be16	-0.41355962
90	0x3f4af226	0.7927574
91	0xbf2bd7e2	-0.67126286
92	0xbeb956e2	-0.361991
93	0xbe53732d	-0.20649405
94	0xbf1f1745	-0.6214488
95	0xbea2e13a	-0.3181246
96	0xbe476fb4	-0.19476205
97	0x3f65ba3f	0.89737314
98	0xbeb0ea9b	-0.3455399
99	0xbe9ff5d1	-0.3124223
100	0xbe90b558	-0.28263354
101	0xbe93a78f	-0.28838775
102	0xbefa363c	-0.48869503
103	0xbe99c631	-0.3003402
104	0xbe8cf35a	-0.27529413
105	0xbdb1b5fa	-0.086772874
106	0xbec30b47	-0.3809454
107	0xbe6a4f46	-0.22881803
108	0xbe92cdd0	-0.28672647
109	0xbe38fa90	-0.18064332
110	0xbecbd09d	-0.39807597
111	0x3e0d2643	0.13784127
112	0xbe786395	-0.24256738
113	0xbf2a946c	-0.66632724
114	0x3eeb14b9	0.45914248
115	0xbd1d9385	-0.038470764
116	0xbeadfd70	-0.3398242
117	0xbeb5effd	-0.3553466
118	0xbf08bb11	-0.5341044
119	0xbe8800ef	-0.26563212
120	0xbebea34e	-0.37233967
121	0xbe9cb040	-0.30603218
122	0xbf13bf26	-0.57713544
123	0xbf2bbdb1	-0.6708632
124	0xbe4731b4	-0.19452554
125	0xbea65a6f	-0.3249087
126	0xbec61845	-0.3869039
127	0xbe158198	-0.14600217

fc3.weight f4 [2, 128]
0	0x3d67ed70	0.056622922
1	0x3c9a76ee	0.018855538
2	0x3c9e9a0b	0.019360563
3	0x3c722324	0.014778886
4	0x3d118e1a	0.03553591
5	0xbd7026cd	-0.058630753
6	0xbbe69e88	-0.0070379414
7	0x3c0f6eb6	0.008754423
8	0x3d410ea1	0.04713309
9	0x3cb572d9	0.02214949
10	0xbca5c803	-0.020236975
11	0x3d5c2f14	0.053755835
12	0x3e08c29c	0.13355488
13	0x3c7b4bbb	0.01533788
14	0x3e9e3b7b	0.30904755
15	0xbadde244	-0.0016928394
16	0xbb70ad6e	-0.0036724466
17	0x3b122150	0.0022297688
18	0xbd5cb72b	-0.05388562
19	0xbd4e2281	-0.050325874
20	0x3d22bbd8	0.039729923
21	0xbd5500b6	-0.05200263
22	0xbc8cf935	-0.017208675
23	0x3d03fed1	0.032225434
24	0x3cf6701e	0.030082759
25	0xbdbd562b	-0.09244951
26	0x3c726dcb	0.0147966845
27	0xbd440c23	-0.047863137
28	0xbe2b9922	-0.16757634
29	0x3d358fbb	0.044326525
30	0x3d677309	0.05650619
31	0x3d0536aa	0.032522835
32	0x3cc54ffd	0.024085993
33	0x3e2d4861	0.16922142
34	0x3cdae874	0.02672217
35	0x3c5789de	0.013155429
36	0xbb4d399c	-0.0031314855
37	0x3e088d0c	0.13335055
38	0x3dd9420b	0.106083
39	0x3c89b6e4	0.016810842
40	0x3cf16ee3	0.02947182
41	0xbd60a1bf	-0.054841753
42	0xbcb85dfa	-0.022505749
43	0xbca66d75	-0.020315865
44	0x3c0e900b	0.008701335
45	0xbc7a8d54	-0.015292484
46	0xbc98e764	-0.018665023
47	0x3deca4a2	0.11554839
48	0x3d244d87	0.040113
49	0xbcaa639b	-0.020799449
50	0x3cf80517	0.030275865
51	0xbc3b6476	-0.011437526
52	0x3df9c29c	0.12195322
53	0xbcc77ae0	-0.024350584
54	0xbc9a6f27	-0.01885183
55	0x3cd62411	0.026140245
56	0x3d917c89	0.07103831
57	0xbcb78d97	-0.022406382
58	0xbbe917d9	-0.0071134386
59	0x3b7e5b91	0.0038811902
60	0xbc8c2e6b	-0.017111978
61	0xbd05177e	-0.032493107
62	0xbccf2872	-0.02528784
63	0x3b5f5f38	0.0034083854
64	0xbc863137	-0.01638089
65	0x3b945592	0.0045268023
66	0xbd8ebe94	-0.06969944
67	0xbdcdd01a	-0.10049458
68	0xbba823d0	-0.0051312223
69	0xbc1a0dcb	-0.009402703
70	0x3e035356	0.12824759
71	0x3d65ed80	0.0561347
72	0xba8595d6	-0.0010191749
73	0x3d006bbc	0.031352744
74	0xbd9230a4	-0.07138184
75	0x3cf6904a	0.0300981
76	0xbda220d0	-0.07916415
77	0x3c36c146	0.011154478
78	0x3c1383e4	0.009003613
79	0x3d0c3ce0	0.034237742
80	0xbe1e8624	-0.15480858
81	0xbea38cc0	-0.3194332
82	0x3b610c55	0.0034339626
83	0xbdde4cb6	-0.10854475
84	0x3c3e707e	0.0116235
85	0x3dc19ee2	0.094541326
86	0xbc4fca2c	-0.012682479
87	0xbd6869c4	-0.05674149
88	0xbcd1a753	-0.025592482
89	0x3d054ce7	0.032544043
90	0xbdb240c2	-0.08703758
91	0x3d66a6fa	0.056311585
92	0x3e86404e	0.26220936
93	0x399ec6ff	0.00030284372
94	0x3d286189	0.04110864
95	0xbc8a29ea	-0.01686569
96	0x3dc58966	0.09645347
97	0x3d6adf77	0.05734202
98	0x3ceef561	0.02916974
99	0xbd093df3	-0.033506345
100	0xbd0fac1a	-0.03507624
101	0x3d066229	0.032808457
102	0xbb34de58	-0.0027598348
103	0x3dbfda6d	0.09367833
104	0xbceb7b6a	-0.028745372
105	0x3bdad9a1	0.0066787754
106	0x3cb8ebc5	0.022573361
107	0x3d21abf2	0.03947062
108	0xbd8afb93	-0.06786265
109	0x3d23cdba	0.039991118
110	0x3c283c72	0.010268318
111	0x3e376dea	0.17913023
112	0x3c2a70db	0.010402883
113	0x3e1c4b56	0.15263113
114	0x3dd00bce	0.101585016
115	0xbe0730aa	-0.13202158
116	0x3dc9135c	0.09818146
117	0x3db487ee	0.08814989
118	0x3bca2104	0.0061684866
119	0xbca9c424	-0.02072341
120	0x3d160f81	0.03663588
121	0x3d9800c6	0.074220225
122	0x3cae6206	0.021286976
123	0x3c271f16	0.010200283
124	0x3de0aa48	0.109699786
125	0x3d5d7814	0.054069594
126	0x3d813675	0.06309215
127	0xbac748ef	-0.0015204231
128	0xbcd616fb	-0.026134005
129	0xbd13ecd7	-0.03611454
130	0xbcf05cce	-0.029341128
131	0xbda43049	-0.08017022
132	0xbcaf5bf6	-0.021406155
133	0xbd94d5c4	-0.07267335
134	0xbc571434	-0.013127375
135	0x3c0d2591	0.008614914
136	0x3c8d1bd1	0.017225178
137	0xbccc5bd5	-0.024946133
138	0xbdf962c1	-0.12177039
139	0xbe363d0c	-0.17796725
140	0x3dc78a14	0.09743133
141	0xbb478450	-0.0030443855
142	0x3cc2a67f	0.023761032
143	0xbc96524a	-0.018349785
144	0xbc07f46f	-0.008298024
145	0xba8397df	-0.0010039768
146	0x3cf997ac	0.03046783
147	0xbc801d9a	-0.015639115
148	0x3d2ce582	0.042211063
149	0x3cf910bf	0.030403493
150	0xbd260028	-0.040527493
151	0xbd9968f3	-0.074907206
152	0xbd429b38	-0.04751131
153	0xbe4530c2	-0.19256881
154	0xbe33245e	-0.17494342
155	0xbd87f4a7	-0.066384606
156	0xbd370a9b	-0.04468785
157	0x3cc0c71f	0.023532448
158	0x3b6647c9	0.0035138002
159	0x3ccfa365	0.025346467
160	0x3bd115c8	0.0063807704
161	0x3d4d7749	0.050162587
162	0xbd4d33ea	-0.050098337
163	0x3ca697be	0.020336028
164	0xbcbcada8	-0.023032025
165	0x3e292875	0.1651934
166	0xbcc2a183	-0.023758655
167	0x3bd2c555	0.006432215
168	0x3cbcd583	0.02305103
169	0xb9c7a536	-0.0003807933
170	0xbc88280c	-0.016620658
171	0xbe27d45a	-0.163896
172	0xbd909acf	-0.070607774
173	0x3c535317	0.012898228
174	0x3c77ea98	0.015131615
175	0xbd876c66	-0.06612472
176	0xbd797447	-0.060901906
177	0x3bb5a9ab	0.0055439076
178	0x3b90bfc7	0.004417393
179	0x3e202d5e	0.15642306
180	0x3db2493e	0.08705376
181	0x3b0fc431	0.0021937008
182	0xba0f8445	-0.0005474727
183	0x3baba868	0.0052385814
184	0xbd6c0ad7	-0.057627525
185	0xbdf5848e	-0.119881734
186	0x3cde8180	0.02716136
187	0x3cdd9233	0.027047252
188	0xbc85af2a	-0.016318876
189	0xbd0fb592	-0.03508527
190	0x3c0b6f9f	0.008510499
191	0xbdb51c12	-0.088432446
192	0x3a096da4	0.0005242473
193	0x3ced5fb9	0.028976308
194	0xbc939944	-0.018017419
195	0x3c4c7312	0.012478607
196	0xbc1d98be	-0.009618936
197	0xbd1807a1	-0.03711665
198	0x3e07aa2b	0.13248508
199	0x3e24899a	0.16068116
200	0xbaf8e3e4	-0.0018988815
201	0x3b2b31b5	0.0026122157
202	0x3d2cda48	0.042200357
203	0x3cd5abf2	0.026082966
204	0x3b8aba8a	0.004233663
205	0xbc5892db	-0.013218607
206	0x395c4563	0.00021006684
207	0xbc8c3c68	-0.017118648
208	0xbb98e6e8	-0.004666198
209	0xbda99e46	-0.082821414
210	0xbcfd0194	-0.030884542
211	0xbdf0d51e	-0.11759399
212	0x3c8f3f79	0.01748632
213	0xbe3da9c2	-0.18521789
214	0x39d8ee1c	0.00041376136
215	0xbe068b35	-0.13139041
216	0xbbb3822b	-0.0054781637
217	0x3c02f235	0.007992317
218	0xbc87242e	-0.016496744
219	0x3d15e2e8	0.036593348
220	0x3c554ca0	0.013018757
221	0xbc93d0ca	-0.018043894
222	0x3dbdeec2	0.09274055
223	0xbcbe4a78	-0.023228869
224	0x3e2548b1	0.16141011
225	0x3e219322	0.15778783
226	0xbb1459b2	-0.002263647
227	0xbc7827aa	-0.015146175
228	0xbcba8aa1	-0.022771182
229	0xbd9407d6	-0.07228057
230	0xbbd6a5cf	-0.0065505276
231	0xbc5124b5	-0.012765099
232	0xbbe01919	-0.0068389294
233	0xbcd4924c	-0.025948666
234	0xbbe399d1	-0.0069458266
235	0x3cd345b1	0.025790067
236	0x3d56a70a	0.052405395
237	0x3cd8202e	0.026382532
238	0xbc39a1a8	-0.011330046
239	0x3e14d575	0.14534552
240	0xbc7d5feb	-0.015464763
241	0x3d7a6b02	0.061137207
242	0xbdafa780	-0.0857687
243	0xbd847b4d	-0.0646883
244	0x3bf8bd2e	0.0075909114
245	0xba7d775e	-0.0009668971
246	0xbc967e66	-0.018370818
247	0xbb571c35	-0.003282321
248	0xbcc87eb0	-0.024474472
249	0xbb877885	-0.00413424
250	0xbd6e3d3b	-0.058163863
251	0xbba3951f	-0.004992142
252	0x3e61789b	0.22018664
253	0xbd79f7e1	-0.06102741
254	0xbac071fa	-0.0014682405
255	0x3d861e29	0.06548721

fc3.bias f4 [2]
0	0x3f3f7995	0.74794894
1	0x3eebc073	0.46045265
