dqn_model_32.pth (torch, 7191 bytes, 6 tensors)

fc1.weight f4 [32, 6]
00000000: 8fe3 66be 4803 80be a651 80bd 9d1e c5bb
00000010: 3397 4cbf 85d6 1c3f 6834 e5bc a11f 62be
00000020: 4432 d73d 3e9f 08bf ba38 9fbf e770 293e
00000030: 2c2d 73be 67e4 94be d0f7 c5be f3dc babe
00000040: 5d0b 18be efdd c43e d12f 00be c443 00bf
00000050: c238 b73d 4800 d6be 99d0 bcbe f101 393d
00000060: 9312 b6be 37b7 d3be a694 5abe d71b 23bd
00000070: 38f8 993d 846a 003e e711 76be 8720 1cbf
00000080: 2b8c c13e 7874 71bb 7445 b5be 3a17 65bf
00000090: 75c2 3abb 56d4 34be 713e 32be 62dd 23be
000000a0: e9be 31c0 dd9a 583f 6ce5 aebe 7ac1 2cbe
000000b0: 5133 7ebe e5c2 86be 8bd8 abbe 2dcf 16be
000000c0: 7191 ecbc 9046 2cbe 6466 75be d615 a3be
000000d0: 9eaa a7bc fb49 cabe dcb8 10bf aabf f6be
000000e0: 470d 81bd bbbb b23b 4549 873e 3a4a ee3e
000000f0: 41b9 2abe caba 76be 2e5f 9c3c 7746 46be
00000100: 4c98 2d3e fb08 283e f40e f7bd f3fc 4bbf
00000110: cf46 40bc ea1d 173c ea7b f7be a792 d63e
00000120: 932e b2bd 4a63 01bf 0624 55bd 1d6e 4bbe
00000130: e0f2 5fbf 4ca0 bc3f 508a 19be 1cb4 e5bc
00000140: 85f9 203b 6574 24be f6c9 96bd ebce 55bf
00000150: d2c8 0ebe eced 13bd 933c 3abe 3aee 9abc
00000160: 10e2 d83e f43d 9bbd bdf6 14be 52ae fcbe
00000170: 6f32 e7bd 3590 a5bd c055 ff3e 4e60 6e3e
00000180: e9e7 aebe ae8f 4fbd d328 8dbd 3a71 bcbc
00000190: 2c72 d03e 8907 4fbf 58e1 a83e 2e02 4b3d
000001a0: 9a90 edbe a419 743d be08 1240 ae18 1c3f
000001b0: 3a37 8bbd 8415 9bbe f3b8 a9be c95a 62bc
000001c0: f185 3abf 5ae9 82be 1faa 1cbe 3d9c cdbd
000001d0: ddca 093e a165 00bf e9e1 21bc 9e21 1b3f
000001e0: 1987 9bbd 9fc7 583e 40cf 33bf d13d 653e
000001f0: 6b0d 1f40 a8cd babf 156f 21bd 7b97 6bbf
00000200: 4202 f23d 5eac aebe c45f f7bf 4d3e 563f
00000210: 818c b1be c45b a13d 1e9f ddbd 2b2c 55be
00000220: afb2 98bc 0e11 85bf c3aa acbe 2f04 1cbd
00000230: 18c5 c0bd 300b a4be 0b33 77be d403 fbbe
00000240: 7563 dbbd 68b4 61bf 8cbc 88be 1fdc 813d
00000250: a6df 063f 429c 5bbe 7a61 3a3e 64e5 46bf
00000260: dd68 083f 399c 5c3d ebc6 88bf 5c0f 853f
00000270: 5286 133e 93ca 1dbf 4389 893e cd3e 91bd
00000280: a789 9abf 3db2 0440 5cbf 073b f45d 93be
00000290: 2b70 17bf 9de3 ff3a 86b1 6c3f 5c5b 8ebf
000002a0: 5ce2 a9be 3a17 31be a440 2dbe 243f 063e
000002b0: 1990 febf 1a91 3a3f b603 663c c49c 17bf
000002c0: f3d0 10bd af91 7bbf 5357 3c3f 79a5 ea3e
000002d0: e1b0 87bd c3a6 ae3e 84fa 0e3e d989 3a3e
000002e0: d65c c03f 5583 89bf 1e1a 03bf c3cf fabe
000002f0: d2eb 84be f66e 753d bf9c f7be b334 85bf
-0.22547744 -0.25002503 -0.06265573 -0.0060156123 -0.7991821 0.6126483 -0.02797909 -0.22082378
0.10507634 -0.53367984 -1.2439187 0.16546975 -0.237477 -0.29080507 -0.38665628 -0.36496696
-0.14848085 0.38450572 -0.1251824 -0.501034 0.089463726 -0.4179709 -0.36877897 0.045167867
-0.35561046 -0.4135072 -0.21345767 -0.039821472 0.07518047 0.12540632 -0.24030267 -0.6098713
0.37802252 -0.0036843102 -0.3540455 -0.89488566 -0.0028497253 -0.17659125 -0.17406632 -0.1600242
-2.7772772 0.846113 -0.3415941 -0.1687068 -0.24824263 -0.26320568 -0.33563647 -0.14727469
-0.028877946 -0.16823792 -0.2396484 -0.31852597 -0.020467099 -0.39509568 -0.56532073 -0.48193103
-0.063013606 0.005454508 0.26423088 0.46541005 -0.16672231 -0.24094692 0.019088354 -0.19362818
0.16952628 0.16409676 -0.12063399 -0.79682845 -0.011735632 0.009223441 -0.48336726 0.41908762
-0.087002896 -0.5054213 -0.052036308 -0.19866224 -0.8747997 1.4736419 -0.14994168 -0.028039984
0.0024562788 -0.16060026 -0.0736274 -0.83518857 -0.13943794 -0.03611557 -0.1818717 -0.018912423
0.42359972 -0.07580176 -0.14547248 -0.49351746 -0.11288916 -0.08084146 0.4987011 0.23278925
-0.34161308 -0.050674133 -0.06892552 -0.02300321 0.40712106 -0.8087087 0.32984424 0.049562626
-0.46399385 0.059594765 2.2817836 0.6097516 -0.06797643 -0.30289853 -0.33148918 -0.01381559
-0.7286063 -0.25568658 -0.15299271 -0.10039566 0.13456292 -0.50155073 -0.009880521 0.6059817
-0.07594127 0.211699 -0.70238113 0.22386862 2.485194 -1.4594011 -0.039412577 -0.92028016
0.11816837 -0.3411588 -1.93261 0.83688813 -0.34677508 0.07878831 -0.10821365 -0.2081763
-0.01863989 -1.039583 -0.3372403 -0.038089927 -0.09412593 -0.32039785 -0.24140565 -0.49026358
-0.10712329 -0.88165903 -0.2670635 0.06340813 0.5268501 -0.21446326 0.18201247 -0.7769377
0.5328501 0.053859923 -1.0685705 1.0395312 0.14406708 -0.6163723 0.26862535 -0.070920564
-1.2073258 2.0733788 0.0020713424 -0.28782618 -0.5915553 0.001952279 0.9245838 -1.1121631
-0.3318051 -0.17294016 -0.1691919 0.13110024 -1.9887725 0.7287766 0.014038971 -0.5922358
-0.03535552 -0.9826917 0.73570746 0.4582937 -0.06625534 0.34111604 0.13962752 0.18216647
1.5028331 -1.0743204 -0.51211727 -0.48986635 -0.25961167 0.059920274 -0.48361775 -1.0406708

fc1.bias f4 [32]
00000000: 3d03 2fbf 35ac e0be 29a9 8b3d 0b4e b7bd
00000010: 754d c93d e02d 33be ede5 7fbf 6381 98be
00000020: 5693 253d 2807 b4ba d191 2e3d 0531 93bf
00000030: 0a15 7f3e 6895 e8be f74a e83d fa1c 39bd
00000040: 8f27 6ebe 9bd9 9b3f b6c2 f9bd e7cb 963e
00000050: f1d9 503f 4592 39bf 77b7 03bf 8f50 2bbe
00000060: 9c72 1dbf cb30 4e3f 8465 e43e 35d6 eebe
00000070: 504f 923d 8ad1 d43d 3543 4bbe 3076 77be
-0.68364316 -0.43881384 0.06819374 -0.089504324 0.09829227 -0.17497969 -0.99960214 -0.29786214
0.040423714 -0.0013735043 0.04261953 -1.1499335 0.2491037 -0.45426488 0.113424234 -0.04519365
-0.23257278 1.2175783 -0.12195341 0.2945244 0.8158255 -0.72488815 -0.5145182 -0.1672995
-0.61503005 0.805432 0.446087 -0.46647802 0.07144034 0.10391529 -0.19849856 -0.24166179

fc2.weight f4 [32, 32]
00000000: 0514 30bd bcc8 55bd 52a6 153e 838a 96bc
00000010: 2c57 a5bc 2293 55be c92b 5fbd e6db 093e
00000020: bba1 24bd 6d3d 963c 8b10 943d 7248 f3bd
00000030: 9e64 d2bd 6849 d0bd 067b ca3c 14b1 f53c
00000040: 00c7 98bc 6218 a9bd d655 eabd 78a2 ef3d
00000050: d17e 3cbc 43fa 7d3c e529 e23b 0313 9dbd
00000060: c474 2a3d f9ab a9bd ac31 a3bd c5e0 613d
00000070: 621b ac3b 084a 3cbe f56b 82be aa3c 36be
00000080: 0063 97bb 5a85 ad3d 9809 883d 06c0 ecbd
00000090: 948e 123e 0b07 dfbd e1a9 5cbe 457c cd3d
000000a0: f378 233e 7a9a b8bc 2a78 893d 8862 163d
000000b0: 8f98 d93b f666 8b3d 3ad4 303d b0d7 20be
000000c0: 4781 1dbe bee2 aeba 7d78 a8bc 1337 2abe
000000d0: 5ada 13be 96d7 9bbc 08d0 55be a6ee a0bc
000000e0: 65ea e4bd fe67 64be a14f 62be 8b40 ff3d
000000f0: 94c9 e6bc caa3 bcbd d102 bbbd 2a8b 033e
00000100: e2b5 34be d8b1 c2be d232 d33d 8596 14bd
00000110: 4d04 99bb 3c64 c53c dfe7 5fbd c1d1 c0bd
00000120: 839e 09bd cef8 8abd 341d 86bc ed60 52be
00000130: e438 2abd 68a7 07be dd51 073e fb28 b8bd
00000140: d626 8abe c3a9 77be a919 a0be aa1c 1b3d
00000150: bde5 40bc acb0 37bc d590 4fbc 9b76 e13d
00000160: a2e0 9dbc df85 16be d384 ccbd a7ea b3bd
00000170: 077d 0abe bdeb c5bd d38d bbbc 687b 963d
00000180: 14dd 40be 56e9 a43d d5d6 d6bd 9d29 84bd
00000190: 98bc 01be 3e1e aabd 7dd1 48bd 85ab d4bd
000001a0: d7e7 073d ec46 003e a6c2 83bd bbdd fbbd
000001b0: 2b62 30bd e09d 29be 3796 19be 11eb 13be
000001c0: 4607 82be 14b8 4abc b857 58be 125e bd3d
000001d0: ad45 0cbe 1123 193e b5c2 a2bc 0c79 0cbe
000001e0: a925 66bd 7c49 3bbe f2e3 d7bd 29ca a9bd
000001f0: 94d2 44be 7cfd fabd 31e0 59bc a46e 89bd
00000200: 9e54 a9bd 7015 34bd bdc5 c5bd 1520 19be
00000210: 41a0 8c3d 5f71 e63b 48c5 0cbe fc49 07be
00000220: c7e0 28be 3a27 e0bc 1b4c 72bd b494 bbbc
00000230: 77cf e3bc c218 9dbc a7e5 26be bbb3 54bd
00000240: a28a 7ebe 2971 cdbe 3c74 c9be ba94 fdbd
00000250: ec7d 7bbd c830 fcbd 37b7 053d d65e 123e
00000260: 109b 82be e242 42be 460c cebc a412 21be
00000270: c99b 8c3d f1e5 0abd a8fc ccbc b672 2a3d
00000280: d712 6ebe ad6f 61be f80e 333d 4134 083e
00000290: 035b cb3c abed 83be 306a e0bd e781 1d3d
000002a0: d139 c8bc c38f 03be 529a de3c 0129 29bb
000002b0: ab7e 36be 3f25 dfbd 5078 063d a99e ccbd
000002c0: 7d52 34be 643d 82be 5065 f2bd ac8e 86bd
000002d0: 5a0a 97bd 7055 d03c 0b37 4abe 3d89 2cbe
000002e0: fb40 86be daa8 36be af3d b6bb 1190 51be
000002f0: 09d1 c6bd d652 32be fe83 cebc 22f1 01be
00000300: 568e 4fbd 1274 773d f644 f73d bec8 f0bd
00000310: 30db f13d 2edc d33c 91ca 2abd fc79 0abe
00000320: e540 f93c d5ed 51be 26c6 21bd b74e 8dbd
00000330: 1f7e 34bf 1449 3ebd 016c 02be a3f9 6d3d
00000340: c3f8 dc3b c8e7 ddbd ead7 843d ef49 803e
00000350: ddfa 2fbe e2f7 d5bb 6bf1 fabc 1fe1 fbbd
00000360: 39c7 e2bd 0810 9fbc 61dc 65bc b042 b73e
00000370: 797e 833c cef6 313c 80d3 54be 7f9c 1b3e
00000380: b939 dc3a 1cb6 113d 7388 893d ab76 05be
00000390: dd01 bebc fde3 9f3d 77f4 6abd fab5 a33d
000003a0: 0812 063d 25aa 953c 920a 033c b68b d9bd
000003b0: 2285 6dbe 6977 2a3b bbd6 9abd 7647 04be
000003c0: d543 28be 4eae 55bd a1a6 e7bd 3db4 fd3d
000003d0: 700f e9bd 85db e6bd 1aa9 523d df8b 3a3d
000003e0: b6f8 30be 851e a7bd 0a5a bbbc ed40 51be
000003f0: e431 2ebd 434b 51bd 8dad 17be b431 513c
-0.042987842 -0.05219339 0.14614227 -0.018376594 -0.020183168 -0.20856908 -0.054485116 0.13462791
-0.0401933 0.018339837 0.07229718 -0.11879052 -0.102730975 -0.10170251 0.024716865 0.029991664
-0.018649578 -0.08256604 -0.11442153 0.1170091 -0.011504845 0.015501562 0.006901967 -0.07669642
0.041615263 -0.08284754 -0.079684585 0.055145998 0.0052522877 -0.18387616 -0.2547299 -0.17796579
-0.004619956 0.084727004 0.06642455 -0.11560063 0.14312202 -0.10890015 -0.21549179 0.10033468
0.15964107 -0.022534598 0.067123726 0.03671506 0.006640501 0.068067476 0.043171145 -0.15707278
-0.15381347 -0.0013342721 -0.020565266 -0.16622572 -0.14438763 -0.019023698 -0.20880139 -0.019645046
-0.1117752 -0.22305295 -0.22100689 0.124634825 -0.028172292 -0.09210928 -0.091313966 0.12846056
-0.17647508 -0.3802631 0.103124276 -0.03627636 -0.004669702 0.024095647 -0.05466449 -0.094150074
-0.033598434 -0.06785737 -0.016371347 -0.20544787 -0.04155816 -0.13247454 0.13214822 -0.089921914
-0.26982754 -0.24185853 -0.31269577 0.037869133 -0.011773524 -0.011211555 -0.012668808 0.1100895
-0.019272152 -0.14699505 -0.09986272 -0.08784991 -0.13524257 -0.09664104 -0.022894775 0.073477566
-0.18834335 0.08052318 -0.10490195 -0.064532496 -0.12669599 -0.083065495 -0.04902791 -0.10384277
0.033180084 0.12527055 -0.064336106 -0.12298151 -0.04306237 -0.16564131 -0.14998709 -0.1444514
-0.25396174 -0.012372989 -0.21127212 0.09246458 -0.13698454 0.14954783 -0.019868234 -0.1371805
-0.05618826 -0.18289751 -0.10541524 -0.08290512 -0.19220954 -0.122553796 -0.01329808 -0.06710556
-0.082680926 -0.043965757 -0.09656856 -0.14953645 0.068665035 0.007032558 -0.13747132 -0.13211817
-0.16491996 -0.027362455 -0.05915461 -0.022898056 -0.027808888 -0.019176845 -0.16298543 -0.051929217
-0.24857572 -0.40125397 -0.39346492 -0.12381883 -0.061399385 -0.12313992 0.03264543 0.1429399
-0.25508928 -0.18970826 -0.025152337 -0.15729767 0.06865651 -0.033910695 -0.02502282 0.041613303
-0.23249374 -0.22015257 0.043715447 0.13301183 0.024823671 -0.25767264 -0.10957754 0.038453963
-0.024441632 -0.1284781 0.027173195 -0.0025811794 -0.17821757 -0.10895776 0.032829583 -0.099911995
-0.17609592 -0.25437462 -0.1183573 -0.06570181 -0.07375021 0.025431365 -0.1974756 -0.16849227
-0.2622145 -0.1783785 -0.0055615525 -0.20465113 -0.09707839 -0.17414412 -0.025209423 -0.12689641
-0.05067285 0.060413428 0.120737 -0.117570385 0.11809385 0.025861826 -0.04169709 -0.13523096
0.030426452 -0.20500882 -0.03949561 -0.06899779 -0.70504946 -0.04645641 -0.12736513 0.0580994
0.006743522 -0.108352244 0.06486495 0.25056407 -0.1718554 -0.006529794 -0.030632695 -0.12298798
-0.11073155 -0.019416824 -0.014029593 0.35793066 0.016051518 0.0108620655 -0.20783806 0.15196417
0.0016801871 0.035574064 0.06715479 -0.1303355 -0.023194248 0.07807157 -0.057362046 0.07993694
0.03273204 0.018269608 0.007998126 -0.10622351 -0.23195317 0.0026011115 -0.07560488 -0.12917885
-0.16432126 -0.052168183 -0.11311079 0.12387893 -0.113798976 -0.11272339 0.0514308 0.045543548
-0.17282376 -0.08160118 -0.022870082 -0.20434923 -0.04252805 -0.051097166 -0.14812298 0.012768198

fc2.bias f4 [32]
00000000: 16e6 0e3f c4fa 9ebe ff08 63be 8de6 59be
00000010: 247d 85be 4928 b3be 2416 1abf f244 a7bd
00000020: 302a f1bc 38ab 15bd f7f5 81be 005c 90be
00000030: bdc3 c8be 5170 c6bc 5814 79bd effe 2a3f
00000040: e866 33be 1cb8 cdbe b714 b4be 2c55 47be
00000050: 74c7 ccbe d7a4 6abe bb52 2a3f 451c 9dbe
00000060: b7ed b2bd abf3 0cbe a6a8 44be e21f d3bd
00000070: 987b afbe ccc0 75be 0982 56be 255c 663f
0.55819833 -0.31050694 -0.221714 -0.21279354 -0.26072037 -0.34991673 -0.60190034 -0.08167447
-0.029439062 -0.03654024 -0.2538297 -0.2819519 -0.39211836 -0.024223479 -0.060810417 0.6679525
-0.17519724 -0.40179527 -0.35172054 -0.19466084 -0.3999592 -0.22914444 0.66532487 -0.3068563
-0.08736747 -0.13764827 -0.1920496 -0.103088155 -0.34273982 -0.23999327 -0.20948042 0.8998435

fc3.weight f4 [2, 32]
00000000: c309 ad3c f948 88bc 8cff 1d3c ebba e33b
00000010: 20bd 8a3b 057d 773c a09e f4bc 37f2 1d3d
00000020: 8f27 0f3e 3f72 5ebb bb14 75bb 7bf6 7e39
00000030: a4a3 2cbd faa3 cd3c 8aef 14bb 0fef ea3d
00000040: fec9 cdbb 3453 353c 0de3 83bc 92ac 3abc
00000050: 4cb1 413b 84e0 78bc 9914 10be 66b6 7a3c
00000060: 552b 963b 8f95 0a3d d50d 793b e55e ca3b
00000070: ed68 4cbc eb51 2e3d e8b3 523c 24c0 323e
00000080: 63f5 cd3d adf6 b03c 7b47 273c efdd 7abd
00000090: 5767 053d 3269 04bd ba9c 60bd 7051 f83c
000000a0: 5abf 193e 49fc d0bb dd26 223d 5d66 eb3c
000000b0: 3471 9a3b 18ff 64bc 45e2 ab3b 32c2 343e
000000c0: 82ef 063c 0f61 2c3d f42b 933b 6cbf 743d
000000d0: a2f1 95bc 38ea e2bb 86fd fdbd 21e4 ccbb
000000e0: da08 5b3c 62b2 5d3b 1363 333c ab37 3a3d
000000f0: 40ab b63b 64a3 3b3d d3b3 9d3c 0a0a d43d
0.021122819 -0.016636359 0.009643447 0.0069497726 0.0042339712 0.015105491 -0.029860795 0.038561072
0.13979934 -0.0033942608 -0.003739639 0.00024315149 -0.042148247 0.025102604 -0.0022725784 0.11471378
-0.006280183 0.0110672 -0.016099477 -0.011393683 0.002955514 -0.015190247 -0.14070357 0.015302276
0.0045828023 0.033834036 0.003800263 0.006175863 -0.012476188 0.04255859 0.012860276 0.17456108
0.100565694 0.021602 0.010209913 -0.06124681 0.032569256 -0.032326885 -0.054836966 0.03031227
0.15014401 -0.006377731 0.039587844 0.028735334 0.004713202 -0.013976835 0.0052454793 0.17652205
0.008235814 0.04208475 0.0044913236 0.059752867 -0.018303696 -0.0069248937 -0.124018714 -0.006252781
0.01336881 0.0033828248 0.010948914 0.045463245 0.005574614 0.04581012 0.019250786 0.10353477

fc3.bias f4 [2]
00000000: 57af 093d c036 063d
0.033614483 0.032767057
