dqn_model_32.pth (torch, 6935 bytes, 6 tensors)

fc1.weight f4 [32, 3]
0	0xbe66c5d1	-0.22536398
1	0xbede437e	-0.43410867
2	0xbea88222	-0.32911783
3	0xbd584d91	-0.052808348
4	0xbd51bb1e	-0.05120384
5	0xbca90736	-0.020633321
6	0x3bbfa467	0.0058484557
7	0xbc8701b5	-0.016480306
8	0xbcb4a5bd	-0.022051686
9	0xbecd2f99	-0.40075377
10	0xbe807374	-0.25088084
11	0xbc862f2e	-0.016379919
12	0x3d50b501	0.05095387
13	0x3d86427e	0.06555651
14	0xbef71c47	-0.4826376
15	0x3e9d6efc	0.30748737
16	0x3be59446	0.007006201
17	0xbf891c13	-1.0711693
18	0x3ceef247	0.029168261
19	0xbe68e730	-0.22744441
20	0xbe02f18c	-0.12787455
21	0xbc9b24a1	-0.018938364
22	0x3e6efe80	0.23339272
23	0xbf165d2e	-0.5873593
24	0x3e354be7	0.17704736
25	0xbe5ec8cf	-0.2175629
26	0xbf1fb9c3	-0.62392825
27	0xbd540cff	-0.051770207
28	0xbf01e21c	-0.5073564
29	0xbe74d3ca	-0.23908916
30	0xbe6800bd	-0.22656532
31	0xbf5a4b0f	-0.8527078
32	0xbc308648	-0.010774203
33	0xbd092a0b	-0.03348736
34	0xbe72d4d9	-0.23714007
35	0x3aa39b8e	0.0012482272
36	0xbe765fe5	-0.24060018
37	0xbee501af	-0.44727847
38	0xbc976a04	-0.01848317
39	0xbe448b90	-0.19193864
40	0x3e858b5d	0.26082888
41	0xbf22f418	-0.6365371
42	0xbdee41d5	-0.1163365
43	0xbecfb625	-0.40568653
44	0xbb8db8c9	-0.0043250066
45	0xbedf0a17	-0.43562385
46	0xbe984d49	-0.29746464
47	0xbd2fd825	-0.04293074
48	0x3d9eaa25	0.07747296
49	0xbee5a4ee	-0.44852394
50	0xbe867b55	-0.2626597
51	0xbaa5ee32	-0.0012659489
52	0x3e0415df	0.12898968
53	0xbea0dcb0	-0.3141837
54	0xbf826f53	-1.0190223
55	0xbeb1c7dc	-0.34722793
56	0x3a7972ff	0.0009515732
57	0xbea651e3	-0.3248435
58	0xbe34685c	-0.17617935
59	0xbed4f018	-0.41589427
60	0x3e346f84	0.17620665
61	0x3d000791	0.031257216
62	0xbf2f0a0d	-0.6837471
63	0x3b82f2ac	0.003996214
64	0xbe6b97f5	-0.23007186
65	0xbc5a160a	-0.013310919
66	0xbe89dca8	-0.2692616
67	0x3e063124	0.13104683
68	0xbed9686b	-0.42462477
69	0xbe012b85	-0.12614258
70	0xbe94bfb2	-0.29052502
71	0xbe353c5f	-0.17698811
72	0xbf5e5e02	-0.86862195
73	0xbf360f9b	-0.7111756
74	0xbc0b549c	-0.008504059
75	0xbefd2bf2	-0.4944759
76	0x3e819c89	0.2531474
77	0xbf2d9d4d	-0.67818147
78	0x3bb9ab9f	0.005666211
79	0xbe8f6abd	-0.28011122
80	0xbd7d1e1e	-0.0617963
81	0x3ec77429	0.3895581
82	0xbc842cc9	-0.016134636
83	0xbfaa5782	-1.3307955
84	0x3e276333	0.16346435
85	0xbf183553	-0.59456366
86	0xbf22e7a5	-0.6363471
87	0xbe8cc525	-0.2749416
88	0x3e224e82	0.15850261
89	0xbedd65be	-0.43241686
90	0xbc7ceb25	-0.015436922
91	0x3c652171	0.013985024
92	0xbd203dbc	-0.039121374
93	0x3de07ae7	0.10960942
94	0xbf446fdb	-0.7673318
95	0xbebef734	-0.37297976

fc1.bias f4 [32]
0	0x3d4c889e	0.049934976
1	0x3e682f51	0.226743
2	0xbf215246	-0.63016164
3	0xbee540a8	-0.4477589
4	0x3e1af954	0.15134174
5	0xbef1077d	-0.47076026
6	0xbf461a2d	-0.7738369
7	0x3ea8079d	0.32818308
8	0x3dbd38f0	0.092393756
9	0xbeab7620	-0.3348856
10	0xbe899659	-0.2687252
11	0xbe90731c	-0.2821282
12	0xbf7def12	-0.9919292
13	0x3e47ab42	0.19498923
14	0x3d297661	0.04137266
15	0x3ed7b5f0	0.42130995
16	0xbf360b0d	-0.7111061
17	0xbec0d907	-0.3766558
18	0xbee48c46	-0.4463827
19	0xbf0840bb	-0.5322377
20	0xbeb9183e	-0.36151308
21	0xbe5f1787	-0.21786319
22	0xbf0ae17d	-0.5425032
23	0xbe4516f2	-0.19247034
24	0x3e15e631	0.14638592
25	0xbeafb0c3	-0.34314546
26	0xbecfc847	-0.40582487
27	0xbf6927a8	-0.91076136
28	0xbd00878b	-0.031379264
29	0xbf078277	-0.5293345
30	0xbda6f420	-0.08152032
31	0xbf891b05	-1.0711371

fc2.weight f4 [32, 32]
0	0xbe22baa6	-0.15891513
1	0xbecc5568	-0.3990891
2	0xbd1a02e4	-0.037600413
3	0xbd9b8e65	-0.07595519
4	0xbe2cf6cb	-0.16891019
5	0xbde0e015	-0.1098024
6	0xbe9e9824	-0.3097545
7	0xbe27b958	-0.16379297
8	0xbdb17b31	-0.08666075
9	0x3e34a26a	0.17640081
10	0x3df28636	0.11842005
11	0xbda68ee4	-0.08132723
12	0xbdac571d	-0.08415053
13	0xbf123759	-0.57115704
14	0xbdc72b27	-0.097250275
15	0xbde94fe2	-0.113921896
16	0xbc03a1e3	-0.008034202
17	0xbd921d78	-0.07134527
18	0xbdb9ce12	-0.09072508
19	0x3d743e78	0.059629887
20	0x3bdc7bfd	0.0067286477
21	0xbddc3378	-0.107520044
22	0xbe406076	-0.18786797
23	0x3dd34aeb	0.10317024
24	0x3e28a7bf	0.1647024
25	0xbe933ce4	-0.28757393
26	0xbd635428	-0.05550018
27	0xbee13e03	-0.43992624
28	0xbebc994d	-0.3683571
29	0x3e590e1c	0.21196789
30	0xbd907337	-0.070532255
31	0xbe9c8939	-0.30573443
32	0x3e22660b	0.15859239
33	0xbd81274f	-0.06306326
34	0xbe246368	-0.16053545
35	0x3de093ab	0.109656654
36	0x3d5a8b37	0.053355422
37	0x3c9f5ee9	0.019454436
38	0xbdde08b7	-0.10841506
39	0x3d4847d9	0.048896644
40	0x3d34956d	0.044087816
41	0x3d2ad2aa	0.04170481
42	0x3e1cc53f	0.15309618
43	0x3c77a0dc	0.015114035
44	0xbe1c41fa	-0.15259543
45	0xbda0e16c	-0.07855496
46	0x3daab373	0.083350085
47	0x3d822f5e	0.06356691
48	0xbd27bbcc	-0.04095058
49	0xbd2e2729	-0.042517815
50	0x3dcb3889	0.099228926
51	0xbd3df076	-0.0463719
52	0x3d9b6634	0.07587853
53	0xbc89646e	-0.016771521
54	0xbc881ba9	-0.016614752
55	0xbe227a48	-0.15866959
56	0xbe8a1685	-0.26970306
57	0x3db2b889	0.087266035
58	0xbe0528df	-0.13003872
59	0xbdbdb13b	-0.0926232
60	0x3ae6455f	0.0017568282
61	0xbe05cd95	-0.13066705
62	0x3cbb8e3d	0.022894973
63	0xbe1b5403	-0.15168767
64	0x3e23e0f6	0.16003785
65	0xbe5f5695	-0.21810372
66	0xbe006cb7	-0.12541471
67	0x3db551bb	0.088534795
68	0x3e11dc07	0.1424409
69	0xbe12f0d4	-0.14349681
70	0xbd14ac38	-0.036297053
71	0x3dba758a	0.0910445
72	0x3db50656	0.08839099
73	0xbda6d734	-0.081465155
74	0x3dedb9be	0.11607693
75	0xbe3819cc	-0.1797859
76	0xbe1ff5aa	-0.15621057
77	0x3c94f9f9	0.018185603
78	0xbde655ab	-0.112468086
79	0xbdea5c7f	-0.114434235
80	0xbe65babc	-0.22434515
81	0xbe28e2cd	-0.16492768
82	0x3dbe0d6c	0.09279904
83	0xbd2994e9	-0.041401777
84	0xbe1ff494	-0.15620643
85	0xbc50b255	-0.01273783
86	0xbd0a2f5c	-0.03373657
87	0xbe337080	-0.17523384
88	0x3e033fc4	0.12817293
89	0x3dfddb1a	0.12395306
90	0xbdd5d9af	-0.104419105
91	0xbd84e27c	-0.06488511
92	0xba406c2d	-0.0007340338
93	0xbe188d42	-0.14897636
94	0xbcd09b22	-0.025464598
95	0xbd13a403	-0.036045086
96	0xbdd71333	-0.10501709
97	0xbe8e7c29	-0.27829102
98	0x3d8c05e9	0.06837065
99	0x3e03974c	0.12850684
100	0xbe14702b	-0.14495914
101	0x3ec6af04	0.388054
102	0x3cb9e25f	0.02269095
103	0xbd5756bb	-0.052572947
104	0x3e285da2	0.16441968
105	0xbdd327b2	-0.10310306
106	0xbd4faf41	-0.050704245
107	0x3e0be608	0.13661969
108	0xbdea1643	-0.11430027
109	0xbe776495	-0.24159463
110	0xbe3e941e	-0.1861119
111	0xbcc7701d	-0.024345452
112	0xbb01873c	-0.0019764444
113	0xbb8bab90	-0.004262395
114	0xbe7f3c00	-0.24925232
115	0xbde6da9a	-0.11272164
116	0x3dbc0486	0.0918055
117	0x3d8c3276	0.06845562
118	0x3e07ddc3	0.13268189
119	0xbd7baff2	-0.06144709
120	0xbde22aca	-0.110433176
121	0xbdba854c	-0.091074556
122	0xbcbf99ba	-0.023388732
123	0xbc89236f	-0.016740529
124	0xbd5c5ef9	-0.05380151
125	0x3da5b7e9	0.08091719
126	0x3d8af9a6	0.06785898
127	0x3ccab633	0.024745082
128	0x3e27554d	0.16341133
129	0xbe7e6b87	-0.24845706
130	0xbdd3a01e	-0.10333274
131	0xbdada546	-0.08478789
132	0x3d263c67	0.040584948
133	0xbe2dd0ba	-0.16974154
134	0xbe0168c1	-0.12637617
135	0xbe2f6b7f	-0.1713085
136	0xbd46a023	-0.048492562
137	0xbd9ac3d5	-0.07556883
138	0x3d66df38	0.05636522
139	0x3baa86e0	0.0052040666
140	0xbe896983	-0.26838312
141	0xbe104330	-0.1408813
142	0xbe420a78	-0.18949306
143	0xbddc960b	-0.10770806
144	0xbe2387ab	-0.15969722
145	0xbde7aa42	-0.11311771
146	0xbd4e1ad1	-0.050318543
147	0x3de6432f	0.11243283
148	0x3ce0eaa5	0.027455637
149	0x3dbdb8ae	0.092637405
150	0x3dc799f7	0.09746163
151	0xbdd786d0	-0.1052376
152	0xbe1f985a	-0.15585461
153	0x3bc894db	0.0061212606
154	0xbc8bd91a	-0.017071296
155	0xbdb3b242	-0.08774234
156	0xbe254e1f	-0.16143082
157	0x3d13d551	0.036092106
158	0x3cdba259	0.026810812
159	0xba0a4cdd	-0.0005275736
160	0x3d5183fe	0.05115127
161	0xbe2b40b5	-0.16723903
162	0x3d691134	0.05690117
163	0x3e069a35	0.13144763
164	0x3d689fea	0.05679313
165	0xbac32b0b	-0.0014890147
166	0xbca343ef	-0.019929854
167	0x3e21ee53	0.1581357
168	0xbe869054	-0.2628199
169	0xbd644041	-0.05572534
170	0xbe149d27	-0.14513074
171	0x3d6e0039	0.05810568
172	0xbd261cb4	-0.040554717
173	0xbe21a4c0	-0.15785503
174	0xbe421069	-0.18951572
175	0xbd1349eb	-0.035959166
176	0xbdc0bf6f	-0.09411513
177	0xbdecec29	-0.115684815
178	0xbdc5feb7	-0.096677236
179	0xbdae6a9f	-0.0851643
180	0xbdce9b87	-0.10088258
181	0x3de2254f	0.11042272
182	0xbe0b0109	-0.13574614
183	0x3d657044	0.056015268
184	0xbe8436ab	-0.25822958
185	0x3daf14f0	0.085489154
186	0xbe085dc8	-0.13317025
187	0xbef5b6d1	-0.4799104
188	0x3d10ed8c	0.035382792
189	0xbef71be0	-0.48263454
190	0x3d626921	0.05527604
191	0xbe168637	-0.14699636
192	0x3d012fea	0.031539835
193	0xbee40a13	-0.44538936
194	0xbe28d094	-0.16485816
195	0x3e2fc304	0.17164236
196	0x3b7cbadb	0.0038563523
197	0x3cfbb3d6	0.0307254
198	0x3e497d12	0.19676617
199	0xbde01e8d	-0.10943327
200	0x3e6afdff	0.22948454
201	0x3c8efeb2	0.017455433
202	0xbe994dd2	-0.29942185
203	0x3dae9fae	0.0852655
204	0xbe46b42c	-0.19404668
205	0xbea69eb1	-0.32542947
206	0xbe3b8f10	-0.18316293
207	0xbd6fb659	-0.05852351
208	0xbe3ab16c	-0.18231744
209	0xbca27efb	-0.01983594
210	0xbe6d5aa5	-0.2317911
211	0x3e266dab	0.16252773
212	0xbca6bff0	-0.020355195
213	0xbe8e68e1	-0.2781439
214	0x3d1867d4	0.037208393
215	0xbda7c7e8	-0.08192426
216	0xbe360e7b	-0.17778961
217	0x3de58ba4	0.11208275
218	0x3e3f308e	0.18670866
219	0xbc0bc4cb	-0.008530806
220	0xbe58ffa9	-0.21191277
221	0xbebac414	-0.3647772
222	0x3e08551f	0.13313721
223	0xbe54bbe5	-0.20774801
224	0xbc5c140f	-0.013432517
225	0xbe3565e0	-0.17714643
226	0xbdc4fdd2	-0.09618725
227	0x3cde53c6	0.027139556
228	0x3e06f6fa	0.13180152
229	0x3d920538	0.07129902
230	0xbe3341ed	-0.17505617
231	0x3ded9016	0.11599748
232	0xbdb2ed35	-0.0873665
233	0x3e182dac	0.14861172
234	0xbda9248e	-0.082589254
235	0x3d86b907	0.0657826
236	0xbe000032	-0.12500075
237	0xbdf2bff2	-0.11853017
238	0x3e0b5be9	0.1360928
239	0xbe174207	-0.14771281
240	0xbd71c713	-0.059027743
241	0x3bfc5bfa	0.007701394
242	0xbd0e80eb	-0.034790915
243	0x3dc6134d	0.0967165
244	0xbd3131ee	-0.043260507
245	0xbd178a9e	-0.03699743
246	0x3da30e83	0.07961752
247	0x3e1496dc	0.14510673
248	0x3dd47074	0.10373011
249	0x3d82e036	0.06390421
250	0xbde7e05d	-0.11322091
251	0xbe313bb9	-0.17307939
252	0xbded1fc5	-0.11578325
253	0xbe0eb793	-0.13937216
254	0xbe119999	-0.14218749
255	0xbe3de896	-0.18545756

fc2.bias f4 [32]
0	0xbe70b691	-0.23507144
1	0xbe602f15	-0.2189296
2	0xbe7c49da	-0.24637547
3	0xbf621cd5	-0.88325244
4	0xbdb7b892	-0.08970751
5	0xbe303ef9	-0.17211522
6	0xbf267ed2	-0.6503726
7	0xbe84d880	-0.25946426
8	0xbf02bdea	-0.51071036
9	0xbed48283	-0.41505823
10	0xbf12a1b6	-0.57278
11	0xbe3b05e1	-0.18263961
12	0xbecd02c5	-0.40041175
13	0xbecc5e0e	-0.39915508
14	0xbea29c51	-0.31759885
15	0xbd8ff919	-0.070299335
16	0xbea5a3a2	-0.32351404
17	0xbedd8520	-0.4326563
18	0xbe8d2bd4	-0.275725
19	0xbe9b5c2f	-0.30343768
20	0xbdb7f4ec	-0.08982262
21	0x4033118d	2.7979462
22	0xbee9e317	-0.45681068
23	0xbe1ead14	-0.15495712
24	0xbe8d31b5	-0.27576986
25	0xbe0a298a	-0.13492408
26	0xbd24fa39	-0.040277693
27	0xbde31959	-0.11088819
28	0xbedbfd14	-0.4296652
29	0xbdec667c	-0.11542985
30	0xbec22987	-0.37922308
31	0xbed79ba8	-0.42110944

fc3.weight f4 [3, 32]
0	0x3dac127a	0.084019616
1	0xbd4c043b	-0.049808722
2	0xbc757825	-0.014982258
3	0x3db1b28d	0.08676634
4	0xbd2af910	-0.04174143
5	0xbb240b3b	-0.0025031108
6	0x3de87aa4	0.11351517
7	0x3bda9e8d	0.0066717328
8	0x3aa1d214	0.0012345933
9	0x3d8eb2fd	0.06967733
10	0x3c53de2a	0.012931386
11	0x3c5a4fb5	0.013324668
12	0x3d999297	0.07498663
13	0xbb0135fa	-0.001971601
14	0xbcdeb052	-0.027183685
15	0x3c380361	0.011231274
16	0x3c217b63	0.009856078
17	0xbc38683a	-0.011255318
18	0x3db066bc	0.08613345
19	0x3d03be1e	0.03216373
20	0x3c297b84	0.01034439
21	0xbedcc509	-0.43119076
22	0xbd310f67	-0.04322758
23	0x3d8bc8cf	0.068254106
24	0x3c80c8f6	0.015720826
25	0x3dbef18a	0.09323414
26	0x3a0cb830	0.0005368022
27	0x3c16b701	0.009198905
28	0x3d7b1dfe	0.0613079
29	0xbe105e4d	-0.14098473
30	0x3d0f3529	0.034962807
31	0x3c21caaf	0.009874984
32	0x3e1443fb	0.14479057
33	0xbcfb27cd	-0.030658627
34	0x3a3e5323	0.0007260313
35	0x3da31d36	0.07964556
36	0xbc13b303	-0.009014848
37	0xb865a5dd	-5.4752327e-05
38	0x3d1ac336	0.037783824
39	0x3d211098	0.039322466
40	0x3d0f73a9	0.03502241
41	0x3a865644	0.0010249098
42	0xbd1220d2	-0.03567583
43	0x3c5404ca	0.012940595
44	0x3e436093	0.19079809
45	0xbccfb9b4	-0.025357105
46	0xbc489e32	-0.012244748
47	0x3d48b266	0.04899826
48	0xbcc058f0	-0.023479909
49	0xbd2e2785	-0.042518158
50	0x3ba5a05a	0.005054516
51	0x3afda0cc	0.0019350289
52	0x3b445c4e	0.0029962244
53	0xbecf0dc4	-0.4044019
54	0x3d3205df	0.04346263
55	0x3d8c6700	0.06855583
56	0x3dff0e80	0.124539375
57	0xbd105e3c	-0.03524612
58	0x3c7c6ce6	0.015406823
59	0xbc8b877f	-0.017032383
60	0x3d5bf2b1	0.053698245
61	0xbc990eb9	-0.018683778
62	0x3d373a3c	0.04473327
63	0x3d1ef259	0.03880534
64	0x3cd1832e	0.025575247
65	0x3ddfbe45	0.10924963
66	0xbd8fc18c	-0.07019338
67	0x3e19e1b6	0.15027508
68	0xbd97ea92	-0.074177876
69	0xbcca852a	-0.0247217
70	0x3dd08e4c	0.10183391
71	0x3d050411	0.03247458
72	0x3d2fb84c	0.04290037
73	0xbc8e2b49	-0.017354624
74	0x3c8cc3c2	0.017183188
75	0xbd483ee9	-0.04888812
76	0x3e380ca3	0.1797357
77	0xbc944b75	-0.018102387
78	0xbc873be7	-0.016508056
79	0xbdb097e0	-0.08622718
80	0xbccb6f04	-0.02483321
81	0xbc216ce9	-0.009852626
82	0x3c1751ce	0.009235812
83	0x3d86083f	0.065445416
84	0x3d36a8ad	0.044594456
85	0xbec730de	-0.3890447
86	0x3b5d196b	0.0033737074
87	0x3d2be97f	0.041970726
88	0xbc107adc	-0.008818354
89	0xbc5f451e	-0.013627319
90	0xbcc25221	-0.023720803
91	0xbbcb63e0	-0.0062069744
92	0x3c4e8711	0.0126054445
93	0x3aaa5b1e	0.0012997126
94	0x3b60f144	0.0034323493
95	0x3c6145d9	0.013749563

fc3.bias f4 [3]
0	0x3fa014b6	1.250632
1	0x3f9647b7	1.1740636
2	0x3f90cb62	1.1312068
