left_large_network.pth (torch, 2529 bytes, 4 tensors)

layer1.weight f4 [21, 6]
0	0xbe2fb167	-0.17157517
1	0xbd6b8185	-0.057496566
2	0xbff35233	-1.900946
3	0x3f77b463	0.96759623
4	0x3e2cebd9	0.16886844
5	0x3dbb778d	0.09153662
6	0x3dbc4e41	0.09194613
7	0x3e3999fd	0.18125148
8	0x3e9dc452	0.30813843
9	0x3f03c6cf	0.5147523
10	0x3e1a1cae	0.15050003
11	0x3e01cbd8	0.12675416
12	0x3d5b400f	0.053527888
13	0x3e502f33	0.20330505
14	0xbefaf985	-0.49018493
15	0xbd0a201f	-0.03372204
16	0x3e2a4adc	0.16630119
17	0x3e7ed740	0.24886799
18	0xbdd7bcc6	-0.105340526
19	0xbe004d59	-0.12529506
20	0xc00a5cf3	-2.1619232
21	0xbf841be9	-1.0321018
22	0x3d949648	0.072552264
23	0x3e13009b	0.143557
24	0xbcd26b34	-0.025685884
25	0xbe05bc3d	-0.13060088
26	0xbfe1aa5e	-1.7630117
27	0x3f0316f7	0.51206917
28	0x3b7d078b	0.0038609232
29	0x3d9c6e10	0.0763818
30	0x3cece036	0.028915506
31	0x3e116eed	0.14202471
32	0xbce6c8a9	-0.028171854
33	0x3e338bed	0.17533846
34	0xbca83e90	-0.020537645
35	0xbdc8a0ab	-0.0979627
36	0x3cd1596f	0.02555534
37	0x3e4be9d8	0.19913423
38	0x4002d056	2.0439658
39	0xbfeda066	-1.8564575
40	0x3d106b35	0.03525849
41	0x3d208aee	0.039194994
42	0xbdaf1fd8	-0.085509956
43	0x3e2f6a4b	0.17130391
44	0xbc26a767	-0.010171748
45	0x3f1f4c3a	0.6222569
46	0x3e5b2326	0.21400127
47	0x3e92fcae	0.28708404
48	0xbcbdba85	-0.023160229
49	0xbe73494b	-0.23758428
50	0xc045b7e2	-3.0893483
51	0xbedabe50	-0.42723322
52	0xbd0f20f5	-0.03494354
53	0x3d7c9d54	0.061673477
54	0x3d86e26e	0.06586157
55	0x3e76dfff	0.24108885
56	0xbf1208db	-0.5704476
57	0x3f74effe	0.956787
58	0x3d5dd145	0.054154653
59	0xbdd1e381	-0.10248471
60	0xba850ff0	-0.0010151844
61	0xbe75c93b	-0.24002545
62	0xbe44f26c	-0.19233102
63	0xbf871fcb	-1.0556577
64	0xbd9a79a6	-0.07542734
65	0x3dbc83a3	0.09204795
66	0xbdb427bc	-0.08796641
67	0xbc14acd5	-0.0090744095
68	0xc00ab24f	-2.167133
69	0x3fa3722d	1.2769219
70	0x3cfdacee	0.030966248
71	0x3e01c89c	0.12674183
72	0x3c937014	0.017997779
73	0x3ec82030	0.39087057
74	0xbea5da5f	-0.32393166
75	0x3d08f072	0.03343243
76	0xbd632e91	-0.05546433
77	0x3e184eee	0.1487386
78	0x3dcce8d6	0.100053474
79	0x3d53b7f4	0.051689103
80	0xbf687d7e	-0.90816486
81	0x3ff8ac43	1.942757
82	0xbd6739e5	-0.056451697
83	0xbe181f00	-0.14855576
84	0x3e1a82b3	0.1508892
85	0xbd6e8dc6	-0.058240674
86	0x3eaf8b9a	0.34286195
87	0xbf51ab5e	-0.8190211
88	0x3e8a1211	0.2696691
89	0xbd6f3dee	-0.05840867
90	0x3d38f94c	0.045159623
91	0x3d8b86bb	0.06812807
92	0x3fbe9e53	1.4892067
93	0x3f4d8d2b	0.8029353
94	0xbd7b4add	-0.061350692
95	0xbd9ec518	-0.077524364
96	0x3e283f27	0.1643034
97	0xbe30d5e2	-0.1726909
98	0x3f08a28f	0.53373045
99	0xbf6031fb	-0.87576264
100	0x3b8c945b	0.0042901463
101	0xbe0505d6	-0.12990507
102	0x3b9fd56a	0.004877736
103	0x3e2307df	0.15920971
104	0x3f49cd0e	0.78828514
105	0x3e8e09d8	0.27741885
106	0x3d63651e	0.055516355
107	0x3e698870	0.22805953
108	0xbe63e40f	-0.22254966
109	0x3d0a234a	0.03372506
110	0xc0028d3f	-2.039871
111	0x3f0a8533	0.54109496
112	0x3e0b6872	0.13614061
113	0x3da9ff74	0.08300677
114	0x3d7c7e33	0.06164379
115	0xbdc8094f	-0.097674005
116	0x3f3efa93	0.74601096
117	0xbeeb1cd3	-0.4592043
118	0x3d5e2382	0.05423308
119	0x3d0aff88	0.0339351
120	0xbd9666f8	-0.073438585
121	0xbdd4f811	-0.103988774
122	0xbf6245d5	-0.88387805
123	0xbff93289	-1.9468547
124	0x3d204f46	0.0391381
125	0xbd20f606	-0.039297126

layer1.bias f4 [21]
0	0x3f84df74	1.0380692
1	0x3e536a42	0.20646003
2	0xbe96d114	-0.2945639
3	0x3e17a9dd	0.14810891
4	0x3e253ef8	0.16137302
5	0x3e4a3bc1	0.19749357
6	0x3f632632	0.88730156
7	0x3f9e463d	1.2365185
8	0x3f743f59	0.9540916
9	0xbf783be9	-0.96966416
10	0x3e593f6e	0.21215603
11	0x3f8144ab	1.0099081
12	0xbfa5c24c	-1.294992
13	0x3f38cb86	0.7218555
14	0xbf895c0b	-1.0731214
15	0xbf49be31	-0.78805834
16	0x3f3aa7a1	0.7291203
17	0x3f373f8f	0.7158136
18	0x3e9bd41f	0.30435273
19	0x3e945c00	0.2897644
20	0xbead3bb0	-0.338346

layer3.weight f4 [3, 21]
0	0x3e2ffe17	0.17186771
1	0x3d0f29ef	0.0349521
2	0xbdcd07eb	-0.10011276
3	0xbe064ebb	-0.13115971
4	0x3e8f80dc	0.28028
5	0x3e845450	0.25845575
6	0x3e2d2a69	0.1691071
7	0x3d79c618	0.060979933
8	0xbe8f08f1	-0.2793651
9	0xbe3579ec	-0.17722291
10	0x3d33a3c1	0.04385734
11	0x3e24f980	0.16110802
12	0xbdc70b24	-0.09718922
13	0x3e82f01a	0.25573808
14	0xbd5ede7e	-0.054411404
15	0xbe8d4337	-0.27590343
16	0x3cbd3748	0.02309765
17	0x3e1f8623	0.15578513
18	0xbe1d626a	-0.15369573
19	0xbc60432d	-0.013687891
20	0xbdabab4d	-0.083822824
21	0x3e1afee5	0.15136297
22	0x3cbaae98	0.02278833
23	0xbcd42356	-0.025895756
24	0xbe0ae0f2	-0.13562372
25	0x3e8a5a3a	0.27021962
26	0x3e83832a	0.25686008
27	0x3e561f2c	0.20910329
28	0x3dba942d	0.091102935
29	0xbf04cad1	-0.51871973
30	0xbe2be9d0	-0.16788411
31	0x3e1f50a8	0.15558112
32	0x3e4bbc4f	0.19896053
33	0xbe0f1881	-0.13974191
34	0x3e82a480	0.2551613
35	0xbddda141	-0.10821772
36	0xbe550cfd	-0.20805736
37	0x3cec6561	0.028856935
38	0x3d8646b8	0.06556457
39	0xbe301009	-0.17193617
40	0x3c554ac2	0.013018312
41	0xbca3d59a	-0.019999314
42	0x3e1a8216	0.15088686
43	0xbdfa32fe	-0.12216757
44	0x3ba3f62e	0.005003712
45	0xbe527297	-0.20551525
46	0x3e6334d4	0.22188121
47	0x3e3ab2e0	0.18232298
48	0x3e30b4a0	0.17256403
49	0x3ddbe068	0.107361615
50	0xbee521ac	-0.44752252
51	0xbdf42cba	-0.119225934
52	0xbce6525b	-0.028115442
53	0x3e52218c	0.2052061
54	0xbddc2297	-0.10748785
55	0x3e5c1ccc	0.2149536
56	0xbd2e1c53	-0.04250748
57	0xbcf703c5	-0.030153165
58	0x3b78b768	0.0037951116
59	0x3db3e6c3	0.08784249
60	0xbe0ec8a8	-0.13943732
61	0x3d6cef3e	0.057845347
62	0xbdf07deb	-0.11742767

layer3.bias f4 [3]
0	0x3ec154a2	0.37759882
1	0x3f686dbd	0.9079245
2	0x3ee723cb	0.45144495
