left_large_learing_rate.pth (torch, 2623 bytes, 4 tensors)

layer1.weight f4 [21, 6]
-0.20626725 -0.17780814 0.1427795 -0.03900762 -0.056533914 -0.03830231 0.012446223 -0.091703534
0.03804862 -0.09023804 -0.023204273 -0.014158248 -0.23093325 -0.090770565 0.12616196 -0.14089388
-0.1421599 -0.2061315 -0.2517143 -0.32206258 0.1764977 -0.22480187 -0.1366089 -0.3097905
-0.060743336 -0.15695019 -0.1960747 -0.11870101 -0.15170613 -0.21556786 -0.21368684 -0.21801959
0.14012466 0.06636979 -0.11460836 -0.054538798 -0.11996356 -0.12648241 -0.123517804 -0.21369977
-0.16182514 -0.22311267 0.09001857 -0.062012974 0.06401495 -0.11639773 -0.18059061 -0.2305699
-0.19474559 -0.039807554 -0.14110677 -0.04723872 -0.11786672 -0.03117766 -0.14577757 -0.1860508
-0.14741808 -0.15035264 -0.14852595 -0.09097398 -0.21782464 -0.12328169 0.23839703 -0.22867836
-0.17293288 -0.1351624 -0.07713547 -0.074324 -0.21463576 -0.15452357 -0.21251118 -0.23055328
-0.0885228 -0.025399202 0.064680465 -0.151929 -0.026066992 -0.18150379 -0.25928754 -0.37406173
0.2124066 0.26784286 -0.13553378 -0.31814137 0.06554397 0.2473987 0.9683925 1.6352489
-0.018745601 0.07972737 -0.13880718 -0.104096726 -0.076995246 -0.094076306 -0.10702462 -0.19319403
-0.103200726 -0.05010796 0.23296429 -0.13520987 -0.022158146 -0.183549 -0.0991296 -0.18723449
-0.15453017 -0.22560826 -0.103950314 -0.23828399 0.02143864 -0.072574444 0.086791694 -0.04979643
-0.024878085 -0.092121586 -0.11545404 0.10942043 -0.06011553 0.38013974 0.082628824 -0.04510837
-0.22241081 -0.06879383 0.055550307 -0.029200288 -0.13932137 -0.15298519
00000000: b937 53be 5613 36be ca34 123e 74c6 1fbd
00000010: 1b90 67bd e2e2 1cbd 3eeb 4b3c 10cf bbbd
00000020: dfd8 1b3d b9ce b8bd e316 bebc fff7 67bc
00000030: c479 6cbe ebe5 b9bd 9a30 013e 7c46 10be
00000040: 5d92 11be 2314 53be b2e0 80be 63e5 a4be
00000050: d0bb 343e 7632 66be 34e3 0bbe dc9c 9ebe
00000060: 01ce 78bd 8db7 20be cec7 48be 8419 f3bd
00000070: da58 1bbe d2bd 5cbe b9d0 5abe 8740 5fbe
00000080: d77c 0f3e e2ec 873d cab7 eabd 1364 5fbd
00000090: 74af f5bd 9b84 01be e7f6 fcbd 1dd4 5abe
000000a0: 7db5 25be a677 64be a85b b83d 5101 7ebd
000000b0: 451a 833d ef61 eebd bfec 38be 841a 6cbe
000000c0: 636b 47be 3f0d 23bd 4b7e 10be 637d 41bd
000000d0: 1b64 f1bd 4b68 ffbc b746 15be 1a84 3ebe
000000e0: c4f4 16be 0bf6 19be 3017 18be 9150 babd
000000f0: 6c0d 5fbe 1c7b fcbd 5a1e 743e a92a 6abe
00000100: 5115 31be 0368 0abe 34f9 9dbd 2e37 98bd
00000110: 7ac9 5bbe 6d3b 1ebe 889c 59be 2916 6cbe
00000120: 714b b5bd fd11 d0bc 3177 843d 4793 1bbe
00000130: 728a d5bc 21dc 39be 56c1 84be 0585 bfbe
00000140: 1e81 593e b322 893e 5ec9 0abe 6de3 a2be
00000150: eb3b 863d 1656 7d3e 92e8 773f d64f d13f
00000160: 6090 99bc 1a48 a33d 7823 0ebe aa30 d5bd
00000170: afaf 9dbd 14ab c0bd b92f dbbd a8d4 45be
00000180: e75a d3bd 013e 4dbd 318e 6e3e 7574 0abe
00000190: 0085 b5bc 45f4 3bbe 7604 cbbd 66ba 3fbe
000001a0: 283d 1ebe da05 67be e7e3 d4bd b800 74be
000001b0: 16a0 af3c e9a1 94bd d8bf b13d 57f7 4bbd
000001c0: 20cd cbbc 3eaa bcbd 2b73 ecbd d217 e03d
000001d0: b43b 76bd ada1 c23e 4d39 a93d 8ec3 38bd
000001e0: a9bf 63be c8e3 8cbd b888 633d 7135 efbc
000001f0: 43aa 0ebe 26a8 1cbe

layer1.bias f4 [21]
-0.067947105 0.04261504 -0.19131857 -0.147577 -0.23758401 -0.12443503 -0.22416897 -0.13550855
-0.08643501 -0.1907207 -0.10448243 -0.16520368 -0.10195945 -0.26217636 -0.29630104 -0.13010614
-0.112328716 -0.20061119 -0.026356496 -0.11703333 -0.07112387
00000000: da27 8bbd 1c8d 2e3d 04e9 43be 6d1e 17be
00000010: 3949 73be cbd7 febd 8d8c 65be c1c2 0abe
00000020: d704 b1bd 4a4c 43be e2fa d5bd 272b 29be
00000030: 1ed0 d0bd fb3b 86be c5b4 97be 8b3a 05be
00000040: 990c e6bd 056d 4dbe 94e9 d7bc 2caf efbd
00000050: 64a9 91bd

layer3.weight f4 [3, 21]
-0.061964966 0.009282591 0.08929379 0.24832706 0.11894925 0.023513269 0.058261212 -0.09266804
0.10307778 0.14478186 -0.033098664 0.15443146 0.10075878 0.23104095 0.17871706 0.1507907
0.025060518 0.15344007 -0.044802457 0.06434237 0.037546523 0.11846206 -0.009078773 -0.10446883
-0.22667468 -0.1099044 0.0066352356 0.102142125 -0.18334407 -0.057901658 -0.116991565 -0.13806584
-0.09416905 -0.046944235 -0.186355 0.1769969 -0.12208004 0.12875113 -0.070967264 0.033228476
0.06412372 0.16902845 -0.12300461 -0.049094953 0.092380024 0.19055639 0.17365327 0.13090822
-0.0595084 -0.10544033 0.04416987 0.093076825 -0.1135601 0.10922613 0.09846284 0.23764744
0.1763239 0.09142625 0.009117602 0.1301856 -0.047987126 0.061247807 -0.11449293
00000000: face 7dbd 0216 183c aadf b63d 7349 7e3e
00000010: aa9b f33d e69e c03c 4fa3 6e3d bec8 bdbd
00000020: 711a d33d b241 143e 7792 07bd 4823 1e3e
00000030: 9f5a ce3d 0096 6c3e 9b01 373e e168 1a3e
00000040: b74b cd3c 651f 1d3e c882 37bd efc5 833d
00000050: 62ca 193d 3d9c f23d 22bf 14bc c1f3 d5bd
00000060: 681d 68be 8f15 e1bd 646c d93b e42f d13d
00000070: 8cbe 3bbe 4a2a 6dbd 4699 efbd 2261 0dbe
00000080: b4db c0bd 9948 40bd d8d3 3ebe ad3e 353e
00000090: 1a05 fabd 56d7 033e 4957 91bd 951a 083d
000000a0: 4c53 833d cb15 2d3e d7e9 fbbd ca17 49bd
000000b0: bd31 bd3d 3721 433e 2ad2 313e ce0c 063e
000000c0: 14bf 73bd 1af1 d7bd 77eb 343d 109f be3d
000000d0: 3392 e8bd f3b1 df3d e3a6 c93d da59 733e
000000e0: 418e 343e b03d bb3d ff61 153c 604f 053e
000000f0: 268e 44bd fbde 7a3d 457b eabd

layer3.bias f4 [3]
2.611925 2.5769951 2.6109824
00000000: c729 2740 7ded 2440 561a 2740
