left.pth (torch, 2317 bytes, 4 tensors)

layer1.weight f4 [21, 6]
000000 77 2a d0 be 64 c6 79 3d 33 19 8f bf 30 13 4d 3e
       -0.40657398 0.060980216 -1.1179565 0.2002685
000010 0f a5 39 3e 03 67 dd 3e 62 ab 98 be d6 77 fb 3c
       0.18129371 0.43242654 -0.29818255 0.03069679
000020 3f 2e 26 c0 d6 9f cb 3f 68 8d 40 3e 55 6d 8a 3e
       -2.5965726 1.5908153 0.18803942 0.2703654
000030 a6 30 33 3e 97 2c 44 bb cb a4 16 40 c1 3c b2 bf
       0.17499027 -0.0029933804 2.3538082 -1.3924791
000040 dc b2 1a be 9e d0 1c be a2 ff 72 bc 51 3d 3c be
       -0.15107292 -0.15313956 -0.014831455 -0.18382765
000050 f5 47 e1 3f bb bc 5b c0 ee 58 97 3d 72 98 58 3d
       1.7600085 -3.4333942 0.07390009 0.05287976
000060 53 94 4f be eb ae a4 3d 0c c4 7e bf 2c da ff 3f
       -0.20271425 0.080411755 -0.99517894 1.9988456
000070 6a 45 f2 bc a2 96 5e 3e 3d 40 c3 bb 89 3b b6 bd
       -0.029574115 0.2173715 -0.0059585855 -0.08898074
000080 43 5f 77 3e 37 b4 ec bd 4f d3 41 be 08 69 12 be
       0.24157433 -0.11557811 -0.18928264 -0.14297879
000090 40 63 9b 3d bc 9f 8c 3d e8 87 1e bf 03 74 9e 3f
       0.0758729 0.068664044 -0.61926126 1.2379154
0000a0 44 5b 2f bd d9 83 42 3e bd df b7 bd e8 cd 76 bd
       -0.042811647 0.18995608 -0.089782216 -0.06025496
0000b0 3e e7 83 be 83 55 80 be f2 39 2e be 77 c8 80 be
       -0.2576236 -0.2506524 -0.17014292 -0.25152943
0000c0 96 83 b1 3e 1c d8 e3 b9 0a dc 54 3f e1 2e 83 be
       0.34670705 -0.00043457828 0.8314825 -0.25621703
0000d0 93 79 9d be f2 bb 9f bd dd 1e 9d 3d 53 02 d8 3d
       -0.30756816 -0.077995196 0.07671902 0.10547318
0000e0 47 af 61 be e9 1e ac 3f d2 81 d1 3c 07 6e 92 bc
       -0.22039519 1.3446933 0.025574598 -0.01787473
0000f0 d5 43 bf 3d 04 46 99 be b1 ce 23 be 90 cc f0 bf
       0.0933911 -0.2993623 -0.15996815 -1.8812428
000100 35 67 02 3d 24 27 77 bd 23 9b 26 bc 14 47 b3 bd
       0.031836707 -0.06034006 -0.010168823 -0.087537915
000110 7b b2 17 40 b0 bb 1a c0 d4 be 99 bd dd a2 94 bc
       2.3702686 -2.4177055 -0.07507101 -0.018144066
000120 16 d9 2b 3b 89 83 9a be 06 50 41 3f 4b 47 14 c0
       0.0026221923 -0.30178478 0.7551273 -2.3168514
000130 b1 ea 92 bd 9b 0c 8e 3d c6 cc bd 3c d8 70 47 3e
       -0.0717367 0.06935998 0.023168933 0.1947664
000140 57 66 80 3f 58 7a bb 3e e9 06 8b 3d 00 fc de 3d
       1.0031232 0.36616778 0.067884274 0.10887909
000150 c3 89 a4 3d 6e 17 30 be df a1 09 3f da 08 5e c0
       0.080340885 -0.17196438 0.5376262 -3.4692903
000160 d7 27 fc bb 23 30 6d bc bd 8b af 3d 9d 7d 8d 3e
       -0.007695179 -0.014476809 0.08571575 0.27634898
000170 1f d9 17 40 5b 47 3c bf fe d8 ca 3b da d3 98 3c
       2.372627 -0.7354638 0.0061904183 0.018655706
000180 61 62 ae bd 0e c7 de be 62 00 27 bf a7 d7 95 3e
       -0.08514858 -0.43511242 -0.6523496 0.29266092
000190 95 c1 16 bc ea 41 d9 3d 1e a8 eb 3d 34 ea 65 3e
       -0.009201427 0.10608275 0.11506675 0.22452623
0001a0 73 2f 83 be e1 74 fa be e2 13 44 3c ed 36 2d 3e
       -0.25622138 -0.48917297 0.011967631 0.16915484
0001b0 bd 48 22 3e e7 fb 30 be 64 86 38 bf 9d 54 3a 3f
       0.1584806 -0.17283593 -0.72080064 0.7278536
0001c0 ed f5 bc bd 99 3d 2b 3e b9 2b 79 be 9a 85 c9 bc
       -0.09226594 0.16722716 -0.24333085 -0.024599839
0001d0 93 22 8b bf 3a 41 ec 3e d6 ea 29 3e bc ee 67 3e
       -1.0869926 0.46143514 0.16593489 0.22649664
0001e0 6d ee ac be ff 0f 4c bb 05 65 e2 bf a4 c3 89 3e
       -0.33775654 -0.0031137464 -1.7687079 0.26907074
0001f0 66 41 65 3e 17 31 9e 3e
       0.22388229 0.30896828

layer1.bias f4 [21]
000000 dc c0 87 be e5 8a ca 3f 1f cc c1 3c e4 ea 67 3e
       -0.26514328 1.5823637 0.023656903 0.22648197
000010 92 5b 9c 3f 8c c1 7c be 09 3f 7b 3f 0d 71 d2 bd
       1.2215445 -0.24683207 0.9814306 -0.10275469
000020 14 18 ad bf 87 ac f3 3e b2 bc 83 3e 91 a5 25 3f
       -1.3522973 0.47592565 0.257299 0.6470576
000030 86 4b 39 bf 70 88 84 3f c3 6f 28 3e 75 5f a9 3e
       -0.72380865 1.0354137 0.16448884 0.3308064
000040 60 09 14 3f fa 50 94 bf 2a 32 83 3f 25 b1 f9 3e
       0.57826805 -1.1587212 1.0249684 0.48767963
000050 59 96 a4 3d
       0.08036489

layer3.weight f4 [3, 21]
000000 77 6f 90 be 93 cc 88 3e 65 da 3d 3e 95 99 bf 3e
       -0.2821004 0.26718578 0.18540342 0.3742186
000010 a0 5e fa 3d 18 c2 3c 3d 18 f3 b3 3c b3 b1 b0 bd
       0.122250795 0.04608354 0.021966502 -0.086276434
000020 02 ed c0 bd b4 5a 2d bd 77 83 f2 be 9d 11 da 3e
       -0.09420206 -0.04232283 -0.47365925 0.42591563
000030 93 bc 35 3e dc 40 4a 3e b8 24 e4 3e 9a 91 b1 bc
       0.17747717 0.19751304 0.44559264 -0.021675874
000040 7a 43 33 3d 05 61 db bd ae cf c4 3c 14 e8 eb 3e
       0.043765523 -0.107118644 0.02402481 0.460755
000050 b5 aa d6 be 61 df 99 be 99 18 bb 3e 81 42 4c 3e
       -0.41927114 -0.30053237 0.36542204 0.19947244
000060 15 2c a6 3e 0c ae c5 3d 8c 4e 04 be ab 56 46 3c
       0.32455507 0.096523374 -0.12920588 0.012105624
000070 0c 4b 16 3e 8e 2a 07 be 3b 33 0e be 75 21 97 be
       0.14677066 -0.13199827 -0.1388673 -0.29517713
000080 5f cb 13 3f 3e 78 a6 3d aa a9 ed 3d 28 f6 9d 3e
       0.57732195 0.08128403 0.116046265 0.30851865
000090 57 9f e3 3d d9 b6 02 3e 92 72 d7 bd fb 30 9b 3d
       0.11114376 0.12765063 -0.105198994 0.07577702
0000a0 11 ad 12 3f 62 9c 12 bf 52 a4 16 bf 5e b1 f1 3e
       0.5729533 -0.5726987 -0.5884448 0.47205633
0000b0 98 f6 19 3e 26 f2 1b 3f 03 63 f0 3d 94 d5 ce bd
       0.15035474 0.60916364 0.11737635 -0.100993305
0000c0 32 21 db 3d c2 05 c2 3d b4 d2 21 be 6e 7a 2d bd
       0.10699691 0.094737545 -0.15803033 -0.042353086
0000d0 3e ff c3 be cc 06 cb 3e 62 f8 14 be 82 03 a0 bd
       -0.38280672 0.39653623 -0.14547876 -0.07813169
0000e0 94 43 53 3e 45 aa 82 3e 70 09 04 3e 9b 04 31 be
       0.20631248 0.2552053 0.12894225 -0.17286913
0000f0 ef 54 50 3d 99 6d 01 3f 16 55 82 be
       0.05086225 0.5055786 -0.2545554

layer3.bias f4 [3]
000000 ea af dc 3e 1d 82 3d 3f 50 ec 1c 3f
       0.43102962 0.7402666 0.61298084
