left.pth (torch, 2125 bytes, 4 tensors)

layer1.weight f4 [16, 6]
-0.25766394 0.14977406 -0.013941424 0.21606891 -0.02196421 0.26279312 0.38220868 -0.0934609
0.044311445 -0.33201334 0.13518515 0.09908084 -0.11672341 0.2322768 0.37715968 -0.13264085
0.44224817 0.14656673 -0.048663974 0.1342235 -0.20169388 -0.36364773 0.087861024 0.01681059
0.18354829 -0.04493313 -0.022435261 0.31860095 -0.2453977 0.33934942 0.06208607 -0.20251262
-0.20353505 -0.024444584 0.15712789 0.16417034 0.22686127 -0.26194322 -0.1605074 0.20157497
-0.22210439 0.30344212 0.0051110354 -0.14070988 -0.13662857 -0.3354696 0.28308716 -0.26762795
-0.28130007 0.031638704 -0.3750495 0.2703039 0.21670759 -0.1492996 0.07435611 0.07876748
0.40123355 0.31313032 0.33308336 0.07503247 0.28712592 0.43545145 0.1752919 -6.7377296e-05
0.16174422 0.29737145 -0.0582114 0.08547176 0.303061 0.06297049 -0.09282355 0.2816141
-0.24985304 0.13394234 -0.15266398 -0.08029418 0.05836896 0.15784676 -0.2114337 0.19040842
0.2551556 0.27347416 0.28306526 -0.111955784 -0.34328687 -0.2318452 0.2885713 -0.3370378
-0.203928 -0.20195839 0.11087119 -0.045137696 0.16195716 0.26197025 -0.27727973 0.39827582
00000000: 87ec 83be 5f5e 193e 926a 64bc 2b41 5d3e
00000010: 49ee b3bc d28c 863e dbb0 c33e 6e68 bfbd
00000020: eb7f 353d a7fd a9be fa6d 0a3e e5ea ca3d
00000030: af0c efbd f8d9 6d3e 131b c13e 01d3 07be
00000040: 5a6e e23e 9715 163e e053 47bd e371 093e
00000050: d788 4ebe 0930 babe 7bf0 b33d 5db6 893c
00000060: 15f4 3b3e cd0b 38bd 27ca b7bc aa1f a33e
00000070: 8949 7bbe 35bf ad3e f74d 7e3d 785f 4fbe
00000080: 7e6b 50be 0240 c8bc 22e6 203e 451c 283e
00000090: 524e 683e 6c1d 86be 0d5c 24be ab69 4e3e
000000a0: 556f 63be c45c 9b3e 797a a73b 4016 10be
000000b0: 5ce8 0bbe acc2 abbe cdf0 903e 8806 89be
000000c0: 9006 90be 9697 013d 7d06 c0be 4665 8a3e
000000d0: 98e8 5d3e ffe1 18be 0448 983d d850 a13d
000000e0: 7c6e cd3e 9e52 a03e e789 aa3e a0aa 993d
000000f0: 2b02 933e 7ef3 de3e b87f 333e e94c 8db8
00000100: 47a0 253e 1241 983e 146f 6ebd d10b af3d
00000110: d02a 9b3e acf6 803d 461a bebd b92f 903e
00000120: 7ad9 7fbe 2e28 093e f253 1cbe 4671 a4bd
00000130: 4a14 6f3d 95a2 213e 1382 58be 6dfa 423e
00000140: c1a3 823e ce04 8c3e eeed 903e 1349 e5bd
00000150: 4cc3 afbe d468 6dbe 9ebf 933e 3890 acbe
00000160: 80d2 50be 2ece 4ebe 6f10 e33d 4ee2 38bd
00000170: 19d8 253e f720 863e 9cf7 8dbe cfea cb3e

layer1.bias f4 [16]
0.32519156 -0.086772 -0.13786393 -0.19372949 0.15464148 -0.14913565 -0.25732428 -0.035492413
-0.28145167 -0.13064508 0.38996714 -0.3286779 0.25688136 0.2840714 -0.24848217 0.031287957
00000000: 827f a63e 85b5 b1bd 342c 0dbe 0661 46be
00000010: 565a 1e3e 04b7 18be 02c0 83be 7e60 11bd
00000020: 6f1a 90be d3c7 05be c6a9 c73e 7848 a8be
00000030: f485 833e ce71 913e 1c72 7ebe cd27 003d

layer3.weight f4 [3, 16]
0.06384087 0.2755268 0.14469357 0.23884684 -0.106948346 -0.06659417 -0.068237945 -0.09399272
-0.1386465 -0.042412538 -0.019366307 0.23952948 -0.1709189 -0.0737572 0.012090155 0.020229666
-0.241591 0.06372443 0.080004625 -0.02177656 0.25402755 0.18901567 0.121555194 0.12626846
-0.20836316 -0.042860795 0.15047368 0.044965573 0.114271216 -0.0020847716 -0.10525574 0.008448109
0.22533458 -0.015991906 -0.028822007 -0.012063572 0.1471229 0.2014941 0.109855734 0.21493419
-0.20341988 0.028888991 0.20313443 0.107129365 -0.19659878 -0.17749403 -0.18659927 0.17973132
00000000: 01bf 823d d911 8d3e 8d2a 143e 4494 743e
00000010: bc07 dbbd 8662 88bd 56c0 8bbd 417f c0bd
00000020: 59f9 0dbe c5b8 2dbd 17a6 9ebc 3747 753e
00000030: 5d05 2fbe 040e 97bd c915 463c afb8 a53c
00000040: a263 77be f481 823d 77d9 a33d c264 b2bc
00000050: e60f 823e 538d 413e eef1 f83d 854c 013e
00000060: 275d 55be cd8e 2fbd c615 1a3e d22d 383d
00000070: 0707 ea3d aaa0 08bb 5290 d7bd f069 0a3c
00000080: 1cbe 663e 7501 83bc 211c ecbc 4aa6 45bc
00000090: 63a7 163e 7854 4e3e 0bfc e03d b517 5c3e
000000a0: 4d4d 50be 9ba8 ec3c 7902 503e a466 db3d
000000b0: 3151 49be ffc0 35be e113 3fbe 7d0b 383e

layer3.bias f4 [3]
-0.13655175 -0.16306856 0.09791748
00000000: 39d4 0bbe 72fb 26be f688 c83d
