left.pth (torch, 2317 bytes, 4 tensors)

layer1.weight f4 [21, 6]
0	0x3e15ac4b	0.14616506
1	0xbea91d42	-0.33030134
2	0x3cc7811b	0.024353554
3	0x3fb9a34b	1.4502958
4	0x3e1c1052	0.152406
5	0xbe9eb43c	-0.30996883
6	0x3e725928	0.23666823
7	0xbe14f35f	-0.14545964
8	0x3f89874d	1.0744416
9	0xbeddd008	-0.43322778
10	0x3daf6b24	0.08565357
11	0xbe1c4a25	-0.15262659
12	0x3e242d60	0.16032934
13	0x3e969ef2	0.2941814
14	0xbf6226b3	-0.883403
15	0x3f3d863b	0.74032944
16	0xbe89d3e9	-0.26919487
17	0x3e0e1e04	0.13878638
18	0x3e4e255e	0.20131442
19	0x3e3ef11d	0.18646665
20	0x3ea3d79a	0.32000428
21	0x3fc55bd2	1.5418646
22	0xbc5e635e	-0.013573496
23	0xbebb2fc4	-0.3655988
24	0x3e60d02c	0.21954411
25	0xbe097602	-0.13423923
26	0x3e6a93a1	0.22907878
27	0x3d65c859	0.05609927
28	0xbf0bb8cb	-0.54578847
29	0xbe18fe42	-0.14940742
30	0xbdb94ffc	-0.09048459
31	0xbd1c0bff	-0.038097378
32	0x3e287b6d	0.16453333
33	0xbe46384f	-0.19357418
34	0xbe3bef2a	-0.18352953
35	0x3cf270e1	0.02959484
36	0xbe9313ba	-0.28725988
37	0xbcdd02c9	-0.026978867
38	0xbeac171c	-0.3361138
39	0xbe6dbead	-0.23217268
40	0xbe2ebdff	-0.17064665
41	0xbeba7b8c	-0.36422384
42	0xbe90ecba	-0.28305608
43	0xbea95f9c	-0.33080757
44	0xc025e76e	-2.5922503
45	0xbf0a9ff3	-0.54150313
46	0x3e3dde3e	0.1854181
47	0x3ee801dc	0.4531392
48	0x3eb64882	0.35602194
49	0xbe3b9184	-0.18317229
50	0x3f6a07d9	0.91418225
51	0xbf8fcfaf	-1.1235255
52	0x3ea7db84	0.32784665
53	0x3e2e1368	0.1699959
54	0x3deb0517	0.1147558
55	0x3ebc7ce1	0.36814025
56	0x3ebddd00	0.37082672
57	0x3eb21139	0.34778765
58	0xbea87c85	-0.329075
59	0x3d7e816e	0.062135153
60	0x3d057bef	0.032588895
61	0x3d9dcaa2	0.07704665
62	0x3e3243cf	0.1740868
63	0x3fdd8e1f	1.7308997
64	0x3ec49d4f	0.38401267
65	0xbee91755	-0.45525613
66	0x3ea2b92f	0.3178191
67	0xbe7579bc	-0.23972219
68	0x3f89c8a4	1.0764356
69	0xc0039ae2	-2.0563283
70	0x3db149e5	0.086566724
71	0xbeeb27cd	-0.45928803
72	0xbcff52e4	-0.031167455
73	0xbea6406f	-0.32471034
74	0x3f220336	0.6328615
75	0xbf81097b	-1.0081018
76	0x3ea234d9	0.31680945
77	0xbe681cba	-0.22667208
78	0xbe99b3ed	-0.30020085
79	0xbd77f395	-0.060535032
80	0x3b87e044	0.0041466076
81	0x3e5229e0	0.20523787
82	0xbe475a92	-0.19468144
83	0xbea982d0	-0.33107615
84	0x3cb07fd0	0.02154532
85	0x3df5e418	0.12006396
86	0x3fd2bc13	1.6463646
87	0xbfaea4eb	-1.3644079
88	0x3e775010	0.24151635
89	0x3e58903a	0.21148768
90	0xbe130d75	-0.14360602
91	0xbd92cba1	-0.071677454
92	0xbfbc596f	-1.4714793
93	0x3f5543c8	0.8330655
94	0x3eefadfb	0.46812424
95	0x3e6b657d	0.22987933
96	0x3e85068f	0.25981566
97	0x3d0ed074	0.034866765
98	0xbf3a641c	-0.72809005
99	0xbf097d82	-0.53707135
100	0x3c63a115	0.013893385
101	0x3d91a51f	0.071115725
102	0xbeb982b3	-0.36232528
103	0x3e7c5e22	0.24645284
104	0xc0171683	-2.360749
105	0x4042c754	3.043416
106	0x3e44bc07	0.19212352
107	0x3e5e3854	0.21701175
108	0xbd4bd82a	-0.049766697
109	0xbe071b90	-0.13194108
110	0x3d58b409	0.05290607
111	0xc03c44f0	-2.9417076
112	0x3d8100e5	0.06298999
113	0x3dee5b5f	0.116385214
114	0x3cb9613a	0.022629369
115	0xbe55c123	-0.20874457
116	0xbd145b05	-0.036219615
117	0x3e1eadf0	0.1549604
118	0xbe2c5340	-0.16828632
119	0x3e08e544	0.13368708
120	0x3d9859dd	0.07439015
121	0xbe3114b2	-0.17293051
122	0xbe129c20	-0.1431737
123	0x3d767f15	0.06017979
124	0xbe80bed2	-0.25145584
125	0xbe4cdcf6	-0.20006165

layer1.bias f4 [21]
0	0xbf33eacc	-0.70280147
1	0xbf1472ec	-0.57987857
2	0xbe0fc124	-0.14038521
3	0xbf41003f	-0.75391
4	0x3de1ad47	0.11019378
5	0xbd83958e	-0.0642501
6	0xbd7ecde8	-0.062208086
7	0x3f020b55	0.5079854
8	0x3f8de775	1.108626
9	0xbf39b306	-0.72538793
10	0xbfe89ed8	-1.8173475
11	0x3fbaa207	1.4580697
12	0x3fb29bae	1.395376
13	0x3e811fbe	0.2521953
14	0xbd9f7c11	-0.07787336
15	0xbf8c43d7	-1.0958203
16	0x3fda2bd2	1.7044623
17	0x3fd70528	1.6798449
18	0x3fc670a6	1.5503128
19	0x3da32aba	0.07967134
20	0xbeac9008	-0.33703637

layer3.weight f4 [3, 21]
0	0xbea71d17	-0.3263938
1	0xbd9b8ff6	-0.07595818
2	0xbc3b0113	-0.01141383
3	0xbe582522	-0.21107915
4	0xbca94c9b	-0.020666411
5	0x3b4bdbc0	0.0031106323
6	0x3da23bfd	0.07921598
7	0xbf299b39	-0.66252476
8	0x3d810e84	0.06301597
9	0xbdd83724	-0.10557392
10	0xbe233d98	-0.15941465
11	0x3e41de01	0.18932344
12	0x3f05f129	0.52321106
13	0x3e47c366	0.19508132
14	0xbd9ab1eb	-0.075534664
15	0x3d557857	0.05211672
16	0x3e50d913	0.20395307
17	0x3f0e2630	0.5552702
18	0x3ef8440f	0.48489425
19	0xbd367a6f	-0.044550356
20	0x3c25ef32	0.010127829
21	0xbf08c6b8	-0.5342822
22	0x3d138fb8	0.036025733
23	0xbd9c7b6b	-0.076407276
24	0xbe4fe616	-0.20302615
25	0x3e592abd	0.2120771
26	0xbe194975	-0.14969428
27	0x3d6b0d6f	0.05738586
28	0xbf48fa4e	-0.78506935
29	0x3e05b6aa	0.13057962
30	0xbdb90e31	-0.0903591
31	0xbe695ec5	-0.22790058
32	0x3e9af9a6	0.30268592
33	0x3f011117	0.504167
34	0xbd88c8a1	-0.06678892
35	0x3de975c5	0.11399416
36	0xbe1ba17e	-0.15198323
37	0x3cd15be9	0.025556521
38	0x3f236f8c	0.6384208
39	0x3f5693aa	0.8381907
40	0xbd3b77e0	-0.04576862
41	0x3cef8e07	0.029242529
42	0xbe9c6d99	-0.30552366
43	0xbe169f81	-0.14709283
44	0x3d18c146	0.037293695
45	0xbe83e610	-0.2576146
46	0x3d905bc7	0.07048755
47	0x3d955615	0.072918095
48	0xbddf79d0	-0.10911906
49	0xbf17bb9d	-0.5927065
50	0x3d7ea8b1	0.062172595
51	0xbe375b1c	-0.17905849
52	0xbdd68bba	-0.104758695
53	0x3e48963d	0.19588561
54	0x3f04f67c	0.51938605
55	0xbd252836	-0.04032155
56	0xbd874500	-0.066049576
57	0x3cd25e63	0.025679773
58	0x3e74898b	0.23880593
59	0x3f0bdead	0.5463665
60	0x3eb7aee7	0.35875627
61	0xbd4319b5	-0.047631938
62	0x3dda28c5	0.106523074

layer3.bias f4 [3]
0	0x3f5bd91d	0.85878164
1	0x3f671799	0.9027038
2	0x3f545550	0.82942677
