right_large_network.pth (torch, 2535 bytes, 4 tensors)

layer1.weight f4 [21, 6]
00000000: 346c f93d 94e4 233e 22ce d03e f856 3a40
00000010: 37c5 25be fa09 f5bd 12ce 203e 74f1 693e
00000020: 16dd 2040 3cb1 87bf 9a75 64bc af9d b8bd
00000030: 9c9e f83d 40e3 81bd b2a7 863f 4b79 f0bf
00000040: 0fea 22be 4c67 543e 4f79 943e 0e36 793e
00000050: 8fb2 0ebf c2fb 8b3f 8c8e 4a3e 3530 473d
00000060: 8f62 643e 54de 3f3e d52a ce3d 6002 91bf
00000070: 8e4a d93d 3c5b bc3d 8882 713d 6de2 06be
00000080: def7 0440 0d7b 00c0 847f 18be 1477 63be
00000090: 6c7a 503c a225 b03e 10f6 d9be 05f7 1d40
000000a0: 1202 06be 2fd4 033d b741 04bd 9ca4 503e
000000b0: ea47 0cbf 96d5 c23f f142 47bd 081f 2b3d
000000c0: f0d0 cc3d acf4 5e3e 78f4 80bf 19dc 993f
000000d0: 197d de3d fb69 fd36 af7e 023e 5473 45bc
000000e0: cc8a 913f eb91 99bf 9ad2 1fbe 8aa4 ff3d
000000f0: efd5 e3bd cef4 4bbe 4964 973d 91a3 bebd
00000100: 8fe0 f53c 8307 b7bd f2c0 073d 8714 e43c
00000110: 94d5 e6bf 619f 0040 6f8e c0bc ca8c 01bd
00000120: 4266 543d cfef 2fbe ae5b 073f a690 1b40
00000130: 09db 34be 9a3d 56be 19d4 d53c ef8c 95be
00000140: ca68 54bf fa03 1ac0 a77f c33d 2c08 c4bc
00000150: 178e 8d3c 99aa 133e d115 9d3f 91b5 8cbf
00000160: 3751 aabc 8f1f e53d 4f79 793e 2571 223e
00000170: 1235 83bf ffa8 ab3e 6993 8fbe 8296 993b
00000180: 4e86 d93c 84c6 8b3d 741d 30be 0f98 fc3f
00000190: e5b0 90bd b11c f6bc 0d7e 0bbe 0267 14be
000001a0: a5b8 6e3e a60f b83d fc80 4cbe b6e8 19be
000001b0: 2184 3cbd 54ec 8f3e e7bb 8dbf e965 2a40
000001c0: 5294 24bd b508 993d 915f 323b 8856 d9bd
000001d0: 894c 65be 2c6a 9ebd 7579 61bd 5c58 b0bd
000001e0: c3ef ffbc 1935 91be 6cb4 8a3f b6a8 23bf
000001f0: d6b9 09bd 8b78 3f3d
0.12178841 0.16005164 0.40782267 2.9115582 -0.16188513 -0.119647935 0.1570361 0.22846013
2.513494 -1.0600963 -0.013944054 -0.09014451 0.12139627 -0.063421726 1.0519927 -1.8787016
-0.15909599 0.2074253 0.289988 0.24337026 -0.5574121 1.0936205 0.1978094 0.04862996
0.22303222 0.18737155 0.10066763 -1.132885 0.10609923 0.09197089 0.058962375 -0.13172312
2.0776286 -2.0075104 -0.14892393 -0.22213393 0.0127245 0.34403712 -0.42570543 2.4682019
-0.13086727 0.032184776 -0.032289233 0.20375293 -0.5479723 1.5221431 -0.048647825 0.04177764
0.10000789 0.21773022 -1.0074606 1.2020293 0.10863704 7.5523253e-06 0.12743638 -0.012051422
1.1370482 -1.1997656 -0.15607682 0.12482555 -0.11124789 -0.19917604 0.07392175 -0.093085416
0.030014304 -0.089369796 0.03314299 0.02784182 -1.8033929 2.0097277 -0.023505418 -0.031628408
0.051855333 -0.17181323 0.5287427 2.4307036 -0.1766168 -0.20921937 0.026102113 -0.29209086
-0.82972395 -2.4064927 0.09545832 -0.023929678 0.017279668 0.14420547 1.2272283 -1.099291
-0.02079068 0.1118766 0.24362682 0.15863474 -1.0250571 0.3352737 -0.28042153 0.0046871314
0.0265533 0.06824973 -0.17198735 1.9733905 -0.0706499 -0.030042978 -0.13622303 -0.1449242
0.23312624 0.0898736 -0.19971079 -0.15030178 -0.046024445 0.28109992 -1.1072968 2.66247
-0.04018051 0.07472364 0.0027217607 -0.10612208 -0.22392477 -0.077350944 -0.05504747 -0.08610603
-0.031242257 -0.28360823 1.083631 -0.6392931 -0.033624493 0.046745818

layer1.bias f4 [21]
00000000: 76ef c1bf 6636 183f a67a 833f 6e66 55bf
00000010: 892c 8e3f e769 63bc 4816 b3bf cd7b a6bf
00000020: 063f 72bf fa52 f33d e98c 15be 65ed 943f
00000030: 35c4 e5bf 7379 343f 4463 aa3f ae1b ffbe
00000040: b2ca 5e3f 7986 3f3e eb09 923f aa7c f53d
00000050: de8b 30bf
-1.5151203 0.59458005 1.0271804 -0.8335942 1.1107341 -0.01388023 -1.3991175 -1.3006531
-0.94627416 0.11881061 -0.14604534 1.1634947 -1.7950503 0.70497817 1.3311543 -0.49825805
0.8702804 0.18703641 1.1409277 0.119866684 -0.6896342

layer3.weight f4 [3, 21]
00000000: ac32 3fbe 2418 a23e 8ce7 c33d d585 debd
00000010: 2846 a83d d827 52bd 6b1a 4cbe 674b 67be
00000020: cf0f 12be 499b 6dbd 0ddf 713d da20 0f3f
00000030: c701 f0bd ce24 1c3e 6f29 183e 696a 08be
00000040: 90e0 e43e 90db 84bd 759d 763e 24bb d83d
00000050: b364 2fbe 4fe8 7dbe fe00 ad3e c152 0d3e
00000060: 5a51 f6bd 6c9c ad3d b0d1 6d3e b251 2dbe
00000070: 6085 20be c365 f9bd 240e f1bd 6b6e e03d
00000080: 1dd5 113f 4755 98be 08eb 3a3d d04b 093e
00000090: 4632 03be a1cb 113f 8955 013e 0e2c 113e
000000a0: 13d3 fb3d f845 083e c355 23be 5170 863e
000000b0: d47f 8f3d adad 9bbc 96f5 3dbd f920 3f3d
000000c0: 5b17 55be 16ca 14be d182 fcbd b3e7 d6bc
000000d0: ba35 c03d 3476 073f 6e7e 5cbe 0d0e 383e
000000e0: 161c 593e 6d06 a3bd 2819 703e 723d 643d
000000f0: d9da 4c3e 23a2 a13d 3052 0ebe
-0.18671674 0.31659043 0.095656484 -0.1086537 0.08216506 -0.05130753 -0.19931953 -0.22587357
-0.14263843 -0.05800942 0.05905061 0.559095 -0.11719089 0.15248415 0.14859556 -0.13321842
0.44702578 -0.06487191 0.24083503 0.10582569 -0.17128257 -0.2479565 0.3378982 0.138011
-0.12027235 0.08477101 0.2322452 -0.16925696 -0.15675879 -0.12177613 -0.11770275 0.109585606
0.5696581 -0.2975256 0.0456343 0.13407826 -0.12812147 0.5695134 0.12630285 0.14176962
0.122961186 0.13307941 -0.15950684 0.26257566 0.07006803 -0.019003714 -0.046376787 0.046662305
-0.2080969 -0.14530215 -0.12329639 -0.02623353 0.093852475 0.5291474 -0.21532604 0.1797411
0.2120212 -0.0796021 0.23447096 0.05572266 0.20005359 0.07892253 -0.1389854

layer3.bias f4 [3]
00000000: 80d0 c63e 019f 6a3f 1df6 0a3f
0.38830948 0.9164887 0.5428179
