right_large_learing_rate.pth (torch, 2629 bytes, 4 tensors)

layer1.weight f4 [21, 6]
0	0xbbe5e5a5	-0.007015901
1	0xbd828436	-0.063728735
2	0x3a18ef86	0.00058340316
3	0x3da0cb5b	0.07851287
4	0xbdb5267b	-0.0884523
5	0xbd7242b1	-0.059145633
6	0xbe2ab6d2	-0.16671303
7	0xbd8e9ef7	-0.06963914
8	0x3d597714	0.053092077
9	0xbe3452a6	-0.17609653
10	0xbe0e497c	-0.1389522
11	0xbdbce75f	-0.09223818
12	0xbe38b3d8	-0.18037355
13	0xbdb5a6cc	-0.088697046
14	0x3e6f1b0d	0.23350163
15	0xbe0b5c1f	-0.1360936
16	0xbe0f3655	-0.1398557
17	0xbe4b0efe	-0.19829938
18	0xbf8022b7	-1.0010594
19	0xbf6aa2da	-0.9165474
20	0x3f5b0e18	0.8556838
21	0x3f6a298d	0.9146965
22	0xbf71bc8b	-0.9442832
23	0xbf65af47	-0.89720577
24	0x3cb39e90	0.021926194
25	0xbd89961d	-0.06718085
26	0xbd6fcb4c	-0.05854349
27	0xbd3f1f43	-0.046660673
28	0xbcb128b4	-0.021625854
29	0xbd84f592	-0.06492151
30	0xbd7272be	-0.059191458
31	0xbe7dd9c9	-0.2479011
32	0xbdff7fcf	-0.124755494
33	0xbe61290b	-0.21988313
34	0xbe4393b8	-0.19099319
35	0xbdd3f99a	-0.10350342
36	0xbbd3c65f	-0.0064628567
37	0xbd99b649	-0.07505471
38	0x3cdd7448	0.027032986
39	0x3db9c028	0.09069854
40	0xbdb79087	-0.08963113
41	0xbd4b1c4c	-0.049587533
42	0xbdf1012f	-0.11767804
43	0xbe67d533	-0.22639923
44	0xbe0dcaa7	-0.13846837
45	0xbe9561fd	-0.29176322
46	0xbe11f3f6	-0.1425322
47	0xbe48835c	-0.1958136
48	0x3b4b698e	0.0031038257
49	0xbd9e79bf	-0.07738065
50	0xbda2743a	-0.07932325
51	0x3cb8b7d0	0.022548586
52	0x3c3b5249	0.0114331925
53	0xbdb93a3e	-0.09044312
54	0xbe5b0bf4	-0.21391279
55	0xbdf5d4cc	-0.120034784
56	0x3e260a03	0.16214757
57	0xbdb04123	-0.08606174
58	0xbe80d2e3	-0.25160894
59	0xbda0f7d8	-0.078597724
60	0xbdf7dfbf	-0.12103223
61	0xbdc2ae02	-0.095058456
62	0xbd84aafd	-0.06477926
63	0xbdbc7244	-0.09201482
64	0xbe1c3a75	-0.15256675
65	0xbe64e0ba	-0.22351351
66	0xbfd9bce3	-1.7010769
67	0xbfd5b484	-1.6695714
68	0xbfdaf7c8	-1.7106867
69	0xbfd98880	-1.6994781
70	0xbfe2b2e2	-1.7710841
71	0xbfdf0214	-1.7422509
72	0xbf6bfbc8	-0.9218106
73	0xbf68aaa9	-0.90885407
74	0x3f4a290d	0.7896889
75	0x3f479624	0.7796347
76	0xbf741e48	-0.95358706
77	0xbf467756	-0.7752584
78	0xbf42c5e7	-0.76083225
79	0xbf42c2fd	-0.7607878
80	0xbe724ae7	-0.23661385
81	0xbf63e4f1	-0.8902121
82	0xbf499582	-0.78743756
83	0xbf29bc2c	-0.6630275
84	0xbe813179	-0.25233057
85	0xbe5270a0	-0.20550776
86	0x3e5acaf4	0.21366483
87	0xbe8a3b29	-0.2699826
88	0xbe10907e	-0.1411762
89	0xbe22c74d	-0.1589634
90	0x3bf2d73b	0.0074109114
91	0xbda33ac9	-0.07970197
92	0xbd8edf2f	-0.06976163
93	0xbd224c35	-0.039623458
94	0x3bdb5712	0.006693729
95	0xbdb0c555	-0.08631388
96	0xbd408621	-0.047002915
97	0xbd897c1b	-0.06713124
98	0xbdadc40e	-0.0848466
99	0xbd261f9d	-0.040557493
100	0xbc955520	-0.018229067
101	0xbb8f18d0	-0.0043669716
102	0xbe0390a3	-0.12848143
103	0xbd97b584	-0.07407668
104	0xbe09b905	-0.13449486
105	0xbe356200	-0.17713165
106	0xbcea93cc	-0.028634928
107	0xbd96dead	-0.07366691
108	0xbda22102	-0.07916452
109	0xbe48c63f	-0.19606875
110	0xbe447b51	-0.19187666
111	0xbd93cb33	-0.072164916
112	0xbdcb88e6	-0.09938221
113	0xbe649e6d	-0.2232606
114	0xbd98a916	-0.074541256
115	0xbdcd63fc	-0.10028836
116	0xbceeb650	-0.029139668
117	0xbe598afc	-0.21244425
118	0xbe7916d3	-0.24325113
119	0xbdf332bb	-0.118749104
120	0xbe67f45e	-0.22651812
121	0xbe4a93d7	-0.19782959
122	0x3e87f726	0.26555747
123	0xbe0e49bc	-0.13895315
124	0xbe0ee160	-0.13953161
125	0xbdcb9b44	-0.09941724

layer1.bias f4 [21]
0	0x3db14566	0.08655815
1	0xbe123de3	-0.1428142
2	0xbe62d44b	-0.22151296
3	0xbf54d001	-0.8312989
4	0x3caa7d5c	0.02081173
5	0xbe1b196c	-0.15146416
6	0xbd63a94e	-0.055581383
7	0xbe800baf	-0.25008914
8	0xbd3913ff	-0.045185085
9	0xbd9ad176	-0.07559483
10	0xbe86f8f9	-0.26361826
11	0xbfdd26a1	-1.7277414
12	0xbf4494b5	-0.7678941
13	0xbf4311aa	-0.7619883
14	0xbea11f6c	-0.31469285
15	0x3d6491ca	0.055803098
16	0x3d698d4a	0.05701951
17	0xbd864cf5	-0.06557647
18	0xbe5dff00	-0.21679306
19	0xbe42863f	-0.18996523
20	0xbe8a091b	-0.26960072

layer3.weight f4 [3, 21]
0	0x3d503848	0.050834924
1	0xbd9b7649	-0.075909205
2	0xbe0f4f57	-0.1399511
3	0xbcbdff49	-0.023193019
4	0xbd3d31f2	-0.04619021
5	0xbda15162	-0.07876851
6	0x3d2a5b48	0.04159096
7	0x3d4441cc	0.04791431
8	0xbce3a706	-0.027789604
9	0xbd26318a	-0.040574588
10	0xbd94ba74	-0.072621256
11	0xbff229f0	-1.8919048
12	0x3ca4a041	0.020095946
13	0xbf49da1c	-0.78848433
14	0x3dedbdf7	0.116084985
15	0xbcce5de0	-0.025191247
16	0xb9dba799	-0.00041895805
17	0x3dba0bc6	0.09084277
18	0xbe0554b2	-0.1302059
19	0x3d63a31d	0.05557548
20	0x3dd8545e	0.10562967
21	0x3cb74358	0.02237098
22	0xbe02aff7	-0.12762438
23	0xbdc60caa	-0.09670384
24	0x3c98dec6	0.018660914
25	0xbd2c062d	-0.041998077
26	0xbe1a4577	-0.15065561
27	0x3d37db45	0.044886846
28	0x3d0189aa	0.031625427
29	0xbbbea777	-0.005818303
30	0xbcb9f6f2	-0.02270076
31	0xbde8ce30	-0.11367452
32	0xbfd7df43	-1.6865009
33	0xbd4c27b0	-0.049842536
34	0xbf2e108b	-0.6799399
35	0x3dd5b0a5	0.10434083
36	0x3d397bb1	0.045283977
37	0xbd149985	-0.03627922
38	0x3d4ce832	0.050026126
39	0xbe1750cb	-0.14776914
40	0x3daef7f5	0.08543388
41	0x3dba0442	0.09082843
42	0x3cd2e939	0.025745975
43	0xbdaf1f07	-0.0855084
44	0xbe011aa1	-0.12607814
45	0x3f62f936	0.88661516
46	0xbcc77810	-0.024349242
47	0xbe03223c	-0.12806028
48	0xbcb6036c	-0.022218429
49	0x3d950bc3	0.07277634
50	0x3cda9cea	0.02668615
51	0x3caf4a3a	0.021397699
52	0xbe1209f1	-0.14261605
53	0x3fed5ac6	1.8543327
54	0x3f4f81ba	0.8105732
55	0x3f43616c	0.7632053
56	0x3d9089f3	0.07057562
57	0x3d0770b5	0.03306647
58	0xbd2781f5	-0.04089542
59	0x3d5e09c3	0.05420853
60	0xbdd270fe	-0.10275458
61	0x3d9bbad2	0.076039925
62	0x3e2702f9	0.16309728

layer3.bias f4 [3]
0	0xbe09a247	-0.1344081
1	0xbe09156e	-0.13387081
2	0xbe044c87	-0.12919818
