right.pth (torch, 2131 bytes, 4 tensors)

layer1.weight f4 [16, 6]
0	0x3e6455e5	0.22298391
1	0xbe0c9f04	-0.13732535
2	0xbdc1f48f	-0.09470474
3	0x3c62e26e	0.01384793
4	0xbd38b2b4	-0.0450923
5	0xbdbd6a3c	-0.09248778
6	0xbec3c051	-0.38232663
7	0x3e66c438	0.22535789
8	0x3e9beff9	0.30456522
9	0xbe6fcf00	-0.23418808
10	0xbea0de76	-0.31419724
11	0x3e0f2d9b	0.13982241
12	0x3e230690	0.15920472
13	0x3c3df274	0.01159345
14	0x3e7343ce	0.23756334
15	0x3e9ff62f	0.3124251
16	0xbe35a705	-0.17739494
17	0xbe87d176	-0.26526994
18	0xbe905df4	-0.2819668
19	0xbe9a1c9a	-0.30099946
20	0x3ea0dd24	0.31418717
21	0x3e0cb278	0.13739955
22	0x3e9de39e	0.3083772
23	0xbb959c11	-0.0045657237
24	0x3c39cb5d	0.0113399895
25	0x3be70da6	0.0070511876
26	0x3e9c79c3	0.30561647
27	0xbe43c700	-0.19118881
28	0xbe91eb46	-0.28499812
29	0xbc995caf	-0.018720953
30	0xbe464137	-0.19360815
31	0x3d3b21e1	0.045686606
32	0xbe948796	-0.29009694
33	0xbec5ddbd	-0.38645735
34	0x3ec1c869	0.37848213
35	0xbe58ae0b	-0.21160142
36	0x3e823584	0.25431454
37	0xbe7ecba6	-0.24882373
38	0xbdd90071	-0.10595787
39	0xbe583bf3	-0.21116619
40	0x3dbb22cb	0.091374956
41	0x3eb347c0	0.35015678
42	0xbdeae5c6	-0.11469607
43	0xbdb81d94	-0.089900166
44	0x3e8018ec	0.25019014
45	0xbdfc76d9	-0.12327356
46	0xbdb1e60c	-0.08686456
47	0xbecb6962	-0.39728838
48	0x3e6d612f	0.23181604
49	0xbea2509b	-0.31702122
50	0xbe7ee5c5	-0.24892338
51	0x3e024511	0.12721659
52	0x3e4ca516	0.1998485
53	0xbe203d65	-0.1564842
54	0x3e370f01	0.17876817
55	0x3e87a2b5	0.26491323
56	0xbe828830	-0.25494528
57	0x3dd578e3	0.10423448
58	0x3df4408b	0.11926373
59	0x3e6cb895	0.23117287
60	0xbe83730d	-0.25673714
61	0xbe69f40f	-0.22847007
62	0x3eb47082	0.35242087
63	0x3eab7716	0.33489293
64	0x3d2b83bf	0.04187369
65	0xbd2e6d36	-0.04258462
66	0x3e1650c3	0.14679246
67	0x3e3361a6	0.17517719
68	0x3dc24b2a	0.09486993
69	0x3ce24a9a	0.027623463
70	0xbea976e7	-0.33098528
71	0xbdc7163e	-0.09721039
72	0xbeb6ac1c	-0.35678184
73	0xbe0fedae	-0.14055511
74	0xbdfc79aa	-0.12327893
75	0x3e985c23	0.29757795
76	0xbe4aa873	-0.19790821
77	0x3ea1d903	0.3161088
78	0xbe6052e5	-0.21906622
79	0x3d059a2e	0.03261774
80	0x3e9f1b26	0.310754
81	0xbe337c7f	-0.1752796
82	0x3ecddbc0	0.40206718
83	0xbb98103b	-0.0046406067
84	0xbe56654e	-0.20937082
85	0xbeb62434	-0.35574496
86	0xbe609454	-0.21931583
87	0xbde237f2	-0.11045827
88	0xbe0c8d12	-0.13725689
89	0x3e4fc854	0.20291263
90	0x3ea01ec6	0.31273478
91	0xbdf79557	-0.12089031
92	0x3e23a4fd	0.15980907
93	0xbe877bef	-0.2646174
94	0xbe971e16	-0.2951514
95	0x3bfcc62d	0.007714054

layer1.bias f4 [16]
0	0xbc3478c5	-0.011015122
1	0xbd04379a	-0.03227959
2	0x3d9e8b95	0.07741467
3	0xbe608e58	-0.219293
4	0xbeb2711a	-0.34851915
5	0x3e09c0ce	0.13452455
6	0x3e7647ac	0.24050778
7	0xbe27d8db	-0.16391318
8	0x3e4eabd7	0.20182739
9	0xbec1ebf6	-0.37875336
10	0x3eab14a7	0.33414194
11	0xbe7e2d13	-0.24821882
12	0xbe806a8c	-0.2508129
13	0xbd28439a	-0.041080095
14	0x3de23d66	0.11046867
15	0xbda3e1ff	-0.0800209

layer3.weight f4 [3, 16]
0	0x3e7ca821	0.24673511
1	0x3e299d45	0.165639
2	0xbe5a2598	-0.21303403
3	0x3e15344f	0.14570735
4	0x3e1b7970	0.15183043
5	0x3e48a88b	0.19595544
6	0x3e2a38bd	0.16623206
7	0x3e068169	0.13135304
8	0xbe141caa	-0.1446406
9	0x3c98f706	0.018672477
10	0x3e11ad85	0.14226349
11	0x3c8dbf22	0.017303053
12	0x3bb9aaaf	0.005666099
13	0x3d69c30d	0.05707078
14	0xbe84cf5c	-0.25939453
15	0xbe287a66	-0.16452941
16	0x3c8ef9cb	0.017453095
17	0xbe000386	-0.12501344
18	0x3d283973	0.041070413
19	0xbcffab07	-0.031209482
20	0x3e2062df	0.15662716
21	0xbe46fb68	-0.19431841
22	0x3d70d162	0.058793433
23	0x3d50136e	0.05079978
24	0x3e0afff4	0.13574201
25	0x3b480a95	0.0030523886
26	0xbe394c7e	-0.18095586
27	0xbe49a93a	-0.19693461
28	0xbe3cacdc	-0.18425316
29	0x3e6a461e	0.2287831
30	0xbcd9af04	-0.026572712
31	0x3e1c9750	0.15292096
32	0xbd92307b	-0.07138153
33	0x3d3e34d0	0.046437085
34	0x3d953357	0.07285183
35	0x3e52edac	0.20598477
36	0x3d8cdbf1	0.06877888
37	0x3e27cc05	0.16386421
38	0xbdc679bc	-0.09691188
39	0x3d3e0641	0.046392683
40	0x3c159bbe	0.00913137
41	0x3e6a3b7c	0.22874254
42	0x3e2fb930	0.17160487
43	0x3e2cd0bc	0.16876501
44	0x3d32dece	0.043669514
45	0x3dd2fcff	0.103021614
46	0xbe255980	-0.16147423
47	0x3d7d400e	0.061828665

layer3.bias f4 [3]
0	0x3dc98ab2	0.09840907
1	0xbe220f22	-0.15826085
2	0x3e876642	0.26445204
