right.pth (torch, 2323 bytes, 4 tensors)

layer1.weight f4 [21, 6]
000000 82 e5 5d 3d 5a 39 14 bd 52 6c 50 40 de 7e 5a c0
       0.054173954 -0.036187507 3.2566113 -3.4139934
000010 1f 2c 5b bd 92 bd 8e 3d d1 d5 30 be e5 d5 5e be
       -0.053508874 0.069697514 -0.17269064 -0.21761282
000020 bc 38 ad bd f5 81 27 3e 7b 5b e8 bd df cf 54 be
       -0.08458087 0.16358168 -0.113455735 -0.20782422
000030 75 e2 ee bd bd 23 21 be ec 6b 3e be b7 bc 1a 3e
       -0.11664287 -0.1573629 -0.18595856 0.15111051
000040 6f d9 a9 bc 09 cc 20 be dd 63 02 be 3e d7 e4 3d
       -0.020733563 -0.15702833 -0.12733407 0.11173867
000050 fb 46 dd bf fe 22 e3 3f e1 df 83 3e 72 2b f1 3d
       -1.7287287 1.7745054 0.25756744 0.11775865
000060 21 ad 54 bd a7 49 34 3e d5 ed 09 3f c6 f5 bd 3e
       -0.05192292 0.17606221 0.5387853 0.37101573
000070 d8 c6 85 3e bc 75 14 3e 2e bc 31 3e c0 aa 02 3e
       0.26128268 0.14498037 0.17356941 0.12760448
000080 7c 02 2a 3f 09 9f 51 3f d5 8f 68 bd 98 c6 26 3e
       0.6641004 0.81883293 -0.056777794 0.16286695
000090 7b 4a 56 bd 8d eb a1 3d 1d 65 12 bf 50 89 67 40
       -0.052317124 0.07906256 -0.57185537 3.617756
0000a0 02 bc 31 3d c3 ba 7e bd da 8a 7d bd 46 1f 0a 3e
       0.04339219 -0.06218983 -0.061899997 0.13488492
0000b0 39 c4 dc bf ea 92 fc 3f c0 61 12 3e 6f bd d5 3d
       -1.7247382 1.9732335 0.14295101 0.10436522
0000c0 ef 4f 8e 3d 6e 5f d2 3e 89 6c 1f 40 92 1b 5d bd
       0.0694884 0.41088432 2.4909995 -0.05398137
0000d0 ba 12 82 bd ac 80 38 be c3 eb d8 bd 5f 16 85 bd
       -0.06351228 -0.18017834 -0.10591843 -0.064984076
0000e0 fa 2a 1d c0 7a 85 11 40 c2 e6 c6 3d 3f f5 37 3e
       -2.455748 2.2737718 0.09711982 0.17964648
0000f0 bb 11 19 3e 4d 69 3f 3e f1 6e 9d 3e 9a e6 4a bf
       0.1494817 0.18692513 0.30748704 -0.7925812
000100 ba de ca 3c 6f f6 46 3d c7 bd 34 bd 7a 25 a3 be
       0.024764407 0.04857486 -0.0441263 -0.3186453
000110 d4 70 64 3f e2 2d 30 c0 3e b9 8a bd 7e fc 58 3e
       0.8923466 -2.7528005 -0.067736134 0.21190068
000120 8a 20 0b 3c e6 1a 0c be b0 b2 b3 3d 0d b9 7d bd
       0.008491645 -0.13682136 0.08774316 -0.061944056
000130 64 66 45 be 5b 64 a0 bc c9 08 8a 3c ea 8f f5 3d
       -0.1927734 -0.019579103 0.016849892 0.1199034
000140 cd 0f 9d bf 2f 82 f0 3d 74 51 bb 3b 31 d9 a8 3d
       -1.2270447 0.117435805 0.005716497 0.08244551
000150 b7 b5 17 3e b4 f0 77 be 94 ea 34 bf 8b cf 36 3c
       0.14815412 -0.24212915 -0.7067044 0.011157881
000160 ec 4e b5 3c 65 8d 1b bd c6 cd 3a be 22 37 e6 3d
       0.02213236 -0.03797664 -0.18242559 0.112409845
000170 fe 76 6f 3f 77 c7 c4 3e 49 37 00 3e 7b 1a 85 3d
       0.9354094 0.3843343 0.1252109 0.064991914
000180 cc 5e 2e bc 01 81 4c 3e 22 90 16 bf cb 68 81 3e
       -0.0106427185 0.19971086 -0.5881368 0.25275263
000190 c5 b4 d6 3c 43 f2 b9 3c 36 c2 78 be 66 22 82 be
       0.026209245 0.022698527 -0.24292836 -0.2541687
0001a0 8f 8e 43 3e b9 cf 32 3e f4 b2 59 bd fd 59 f7 bd
       0.1909735 0.17462052 -0.05314918 -0.12077711
0001b0 27 db a3 be c7 89 d3 3d 15 a5 ed be 3d 36 0d 3f
       -0.32003137 0.10329013 -0.4641501 0.55160886
0001c0 33 a9 60 3e 70 9c 6c 3e 53 ee c0 3d c3 64 c3 3e
       0.21939544 0.23106551 0.09420457 0.38162813
0001d0 53 36 74 3d b9 84 03 40 72 50 a7 bd d9 30 28 be
       0.05962212 2.0549757 -0.081696406 -0.16424884
0001e0 51 c5 73 3c 07 f3 28 3e 58 b0 25 bf 3b 90 34 40
       0.014878587 0.16498958 -0.64722204 2.8213031
0001f0 e2 b8 19 bc 3d d7 99 3b
       -0.009382458 0.004694848

layer1.bias f4 [21]
000000 cd 2f 89 3f 9c 3b e6 3d b8 b4 5d be 1b 95 c5 3f
       1.0717713 0.11241838 -0.2165097 1.5436128
000010 14 89 81 bf 77 e6 9d 3f f2 d0 bd 3f 84 87 b1 3f
       -1.0119958 1.2335957 1.482939 1.3869481
000020 64 56 90 3f bd 05 88 3f 8f 08 42 bf 9c a9 42 3f
       1.1276364 1.0626751 -0.7579431 0.76040053
000030 66 10 99 be cf 72 3f 3d 02 ab 19 3f 7b b7 19 bf
       -0.29895324 0.04674035 0.6002656 -0.60045594
000040 ba 74 1a 3d c5 ba 2d bc 83 c2 7d bf c0 1c 7d bf
       0.037708975 -0.010603611 -0.99124926 -0.98871994
000050 49 92 f7 3f
       1.9341518

layer3.weight f4 [3, 21]
000000 2c b3 e4 3e 40 71 94 bd 60 a6 8b bd 72 2b b4 3e
       0.44667947 -0.07248163 -0.06818843 0.35189396
000010 fc 59 ad be eb cb b0 3c 2a 91 bf 3e 97 df 3c 3e
       -0.33857715 0.02158161 0.3741544 0.18444668
000020 71 db 2c 3e 2d ac a9 3d 45 31 65 3c 44 69 14 3e
       0.16880585 0.08284793 0.013988798 0.1449328
000030 34 b2 a8 bb 79 b7 4b be a9 74 23 3c 59 ee 6b bd
       -0.0051481966 -0.19894208 0.009976544 -0.057600353
000040 67 e9 5a 3d bb 2c 81 3d 7e f0 5f be f9 65 86 be
       0.053445246 0.0630736 -0.21869084 -0.26249674
000050 7a 31 8b 3e b8 e2 08 3f 8d 14 1b bd b7 eb ab 3c
       0.27186185 0.53470945 -0.037861396 0.020986421
000060 13 b7 95 3e 41 4c b4 be 05 ab 8e 3d 48 0f c9 3e
       0.29241237 -0.35214427 0.06966213 0.3926947
000070 b9 3c b5 3e 48 25 59 3e 9e 9f 4c 3d ed 26 4f bd
       0.3539789 0.21205628 0.04995691 -0.050574232
000080 b9 a5 94 3d a2 03 22 bd 4a 04 bf be ba 43 81 3c
       0.072581716 -0.039554246 -0.3730796 0.015779365
000090 4f 96 df bd 35 9d 8c 3d fb ee b4 3d c0 38 65 be
       -0.10917341 0.06865922 0.088346444 -0.2238493
0000a0 fb b7 95 be 44 85 9e 3e c7 b6 a4 3e d5 01 c7 3d
       -0.29241928 0.3096105 0.32170698 0.09717146
0000b0 5e 78 a7 bd a2 cc b3 3d dd 36 73 be 90 9b c5 3d
       -0.08177255 0.08779265 -0.23751397 0.09648812
0000c0 2a 86 ba 3e fb 38 84 3e be 5d 25 3e 3d 3f 42 3e
       0.36430484 0.25824723 0.16149041 0.18969436
0000d0 13 02 bb bb d7 f8 58 3e 14 e4 1b 3e 71 87 8d be
       -0.0057070344 0.21188675 0.15223724 -0.27642396
0000e0 5d 24 76 bd 79 58 50 3e 2d 37 ec 3d e8 e5 da bd
       -0.060093272 0.2034625 0.115339614 -0.106883824
0000f0 9e b0 87 be 0c c7 9a be ca 1f 88 3e
       -0.26501936 -0.30229986 0.26586753

layer3.bias f4 [3]
000000 82 b3 40 3f a4 b9 72 3f 2d ec 21 3f
       0.7527391 0.94814515 0.63251
