right.pth (torch, 2323 bytes, 4 tensors)

layer1.weight f4 [21, 6]
00000000: fae4 15be 1ba6 eabd 2d67 25c0 2568 c53f
00000010: 8b35 523e e4e1 353e a631 2ebe fa31 c1bd
00000020: 54de 1640 c889 bfbf e6c5 9a3c 15cd b83e
00000030: ecc4 65be f475 66be a547 8dbd abd7 c2bf
00000040: ae3c bd3e 77d6 203e db1c 47be d962 a93e
00000050: 1c9d b63d 509e ca3f d192 c63d fb31 8ebc
00000060: 15f0 2bbd aef6 003e 8724 1640 1aef 54bf
00000070: 8af7 913e e665 213e 97d9 f0bd 7d69 14be
00000080: 9866 90be 3912 9f3e adac 37be 8a6a 78be
00000090: a4eb 4abe 6b20 8fbe c482 bc3e 84ec 37be
000000a0: 44d2 30be 0de9 3abe abf0 88be 1037 573e
000000b0: b5f3 e7bf eaeb 963d b74b ef3d 02f1 113e
000000c0: 3458 393e 5e6b 2abe 70f0 3240 33ef 95bf
000000d0: 71c0 91bd 8aec b9bd e7cc 803e 30d5 8fbe
000000e0: 4252 2340 8a4e 80bf 7cbc 6bbd be49 62be
000000f0: 92e2 103e 83f1 223d 2bfa 4340 9011 3a3e
00000100: 57dc ddbd 4928 27be 4218 a03d d6ea 3b3e
00000110: 543e 8cbf d7df 0e3f 3f63 a53c 7b10 e53d
00000120: 2695 b53e 8593 6fbd 65da 3440 9618 f1bc
00000130: 4d13 3dbe 156d bcbe 8973 943e 4536 f2bd
00000140: 019c 1bbf 303a 193f b2fe b1bd 0050 9ebe
00000150: 2f62 723e 0716 9f3d 1ced c93d 2e2b 0c3f
00000160: 70d8 763e eadd 163e 92c3 a7be f2a1 babe
00000170: 4bcf b5be d46d 4bbe 4da1 8bbe 940f 8ebe
00000180: aa20 303e 16d1 b23d 9893 2140 9526 f6be
00000190: 2b3a c8bc 0883 be3e 39da 873d 8de4 553e
000001a0: 56c5 51bf 0ef3 da3e 740b 9b3e 9a30 55be
000001b0: fad6 53bd 4d41 bfbd fbc8 bf3e fde0 dd3d
000001c0: 4934 32be 1d46 b9be db45 0a3e 49f5 fabd
000001d0: a37c 1840 0d53 b1bf 519b a33e 57e4 36be
000001e0: 44e7 b1be 618d abbe 327d a4bd e294 8fbe
000001f0: 2058 1abe b2a0 38be
-0.14638129 -0.11457463 -2.5844223 1.5422407 0.20528238 0.17761952 -0.17011127 -0.094333604
2.3573198 -1.4963923 0.018893193 0.36093965 -0.22438401 -0.22505933 -0.06898431 -1.5222067
0.36960357 0.15706812 -0.19444601 0.33083227 0.08916685 1.5829563 0.09695972 -0.017357817
-0.041977007 0.12594101 2.3459795 -0.8317734 0.2850917 0.15761527 -0.11760252 -0.14493366
-0.28203273 0.3106859 -0.17936964 -0.24259391 -0.19816452 -0.2795442 0.36818516 -0.17961317
-0.1726771 -0.18252964 -0.26746115 0.21017098 -1.8121248 0.07369216 0.11684363 0.14252093
0.18100053 -0.1664252 2.7959251 -1.1713623 -0.071167834 -0.09078319 0.25156328 -0.28092337
2.5518956 -1.0023968 -0.0575528 -0.22098443 0.1414893 0.039781105 3.062144 0.18170762
-0.10833042 -0.16323961 0.07817127 0.18351302 -1.0956521 0.558103 0.020188926 0.11184784
0.35465354 -0.058490295 2.8258297 -0.029430669 -0.18464394 -0.36801973 0.28994396 -0.11826757
-0.6078492 0.5985441 -0.086911574 -0.3092041 0.23670267 0.07767873 0.09859678 0.54753387
0.24106002 0.14733091 -0.32766396 -0.3645168 -0.35509714 -0.19866115 -0.272715 -0.2774626
0.1719996 0.08731286 2.5246334 -0.4807631 -0.0244418 0.37209344 0.066334195 0.20887966
-0.81941736 0.4276356 0.30282176 -0.20819321 -0.05171869 -0.09338627 0.37458023 0.10833929
-0.17402758 -0.36186305 0.1350321 -0.12253816 2.3826072 -1.385347 0.31954435 -0.17860542
-0.34746754 -0.335063 -0.080316916 -0.28043276 -0.1507268 -0.1803005

layer1.bias f4 [21]
00000000: 6a09 a13f d1f3 0abe 9f28 563f 1d98 873f
00000010: 4df7 04bd 9768 243d 7ab5 50bd cd7b 2bbe
00000020: a4c3 cf3e dfe4 ab3d 9492 23bf 2327 04be
00000030: d4c1 1e3f 67d8 5dbf 4be9 7dbe fe98 b4be
00000040: cc23 8c3c 8b77 3d3e 25f9 15be 5365 623e
00000050: ad0c c6bd
1.2580998 -0.13569571 0.8365573 1.0593296 -0.032462407 0.040138807 -0.05095432 -0.16746445
0.4057895 0.08393263 -0.63895535 -0.12905554 0.6201451 -0.8665833 -0.24796025 -0.35272974
0.017106913 0.18502633 -0.14645822 0.22108965 -0.096703865

layer3.weight f4 [3, 21]
00000000: 8df4 15bf 3dbf d63e 621e 463e 6980 0e3e
00000010: 40cc 773d 519b 113e 1c23 f0bd 35f0 8bbd
00000020: b496 5d3e c02b 833e 4284 233e d51c c53b
00000030: 6cfe a33e 3daa 54bf 6b3f 023e ccac 063e
00000040: 55f3 803c 7e9e 0cbe 5053 80bd 3c89 353e
00000050: fbec 16be 873e f3be be30 973e d397 523e
00000060: fb86 433e c523 e33c 2216 4b3e 404d 51bd
00000070: b644 9ebd 2b81 653c 3cd7 833e 86ff 393e
00000080: 9d94 22be 3bd8 583e ac3f 12bf 4e79 20bc
00000090: 8e50 8d3c 370f 783e 9588 a2bd 1875 0ebe
000000a0: 712f 773e 9294 09be 8bd8 04bf 1a95 d43e
000000b0: 4b85 363e 36a1 553e 5d29 9c3e 3608 2e3e
000000c0: 6704 74bd 9737 9bbe ee57 de3e a511 4e3e
000000d0: 9e22 aabc cca0 47bd dbca 243e a60a f3be
000000e0: 6309 0dbe 1707 92bd 92b4 2b3e 76d9 26bc
000000f0: 3ec0 febb 2f06 603d cd28 f6bd
-0.5857628 0.41942778 0.19347528 0.13916172 0.060497522 0.14219405 -0.117254466 -0.06832925
0.2163952 0.25619316 0.15968421 0.0060154 0.32030046 -0.83072263 0.12719505 0.13151854
0.01574103 -0.13732335 -0.062658906 0.17728132 -0.14738838 -0.47508642 0.29529375 0.20565729
0.1909446 0.027727017 0.19832662 -0.051099062 -0.07727949 0.014007847 0.25750148 0.1816388
-0.15877004 0.21176235 -0.57128406 -0.009794546 0.017250326 0.24224554 -0.07936207 -0.13911855
0.24139191 -0.13435581 -0.5189292 0.41520005 0.17824285 0.20862278 0.30500308 0.1699532
-0.05957451 -0.3031585 0.4342646 0.20123918 -0.02076846 -0.048737332 0.16093008 -0.47469062
-0.13773112 -0.071302585 0.16768101 -0.010183683 -0.007774382 0.054693397 -0.12019501

layer3.bias f4 [3]
00000000: a051 5b3d 7b68 acbd 9560 08be
0.05354464 -0.084183656 -0.13318093
