old_version/dqn.pth (torch, 6935 bytes, 6 tensors)

fc1.weight f4 [32, 3]
-0.02407066 -0.0004126083 -0.5926207 -0.4284213 -0.07374365 -0.37425807 0.00057197677 -0.48384917
-0.8769143 -0.010032789 -0.3567955 -0.34554702 0.00038113596 -0.22540975 -0.4460245 -0.27201945
-0.8601216 -0.0066916565 -0.07087095 -0.024600975 -0.31684443 -0.051208477 -0.016579652 -0.8826953
-0.57029235 -0.51120913 -0.14037666 -0.81532 -0.30215335 -0.007701657 0.08062421 0.15904377
-0.24764054 -0.026270675 0.83074147 -0.6426489 -0.25464982 -0.12284714 -0.0035963892 -0.38039118
0.2952494 0.2981885 -0.005515957 -0.043499585 -0.49494365 -0.042662527 0.03407977 -0.60710794
-0.27319896 -0.0005417453 -1.3409505 -1.3629111 0.012780361 -0.7127682 -0.5064673 -0.09891789
-0.07446859 0.00010045728 -0.25266927 -0.46550506 -0.43107766 -0.058819797 -0.57313675 -0.11696713
-0.002143571 -0.2617617 -0.9554215 -0.024566468 -0.08688072 -0.22861691 -0.0027554242 -0.8291488
-0.78558236 -0.28007042 -0.0026066247 -0.01364858 -0.028348906 -0.98325324 -0.19551924 -0.50313056
-0.4543395 -1.2942854 -0.5495796 -0.004217156 -0.51661515 -0.84495026 8.936368e-05 -0.0027095194
-0.29613554 -0.6752118 -0.018258402 -0.1807883 -0.65171385 -0.107340395 -0.008220805 -0.68458444
00000000: d52f c5bc 5953 d8b9 fdb5 17bf 095a dbbe
00000010: e906 97bd c19e bfbe b6f0 153a 14bb f7be
00000020: 757d 60bf 9160 24bc e6ad b6be 8aeb b0be
00000030: 34d3 c739 d0d1 66be 535d e4be 2246 8bbe
00000040: ee30 5cbf af45 dbbb ca24 91bd fc87 c9bc
00000050: 6f39 a2be fbbf 51bd 0dd2 87bc 52f8 61bf
00000060: aefe 11bf 9ade 02bf e6be 0fbe d0b8 50bf
00000070: d8b3 9abe 2e5e fcbb 4e1e a53d 5fdc 223e
00000080: 7b95 7dbe 9935 d7bc 79ab 543f a384 24bf
00000090: 7661 82be 4897 fbbd 66b1 6bbb a2c2 c2be
000000a0: ee2a 973e 2aac 983e 33bf b4bb 9f2c 32bd
000000b0: 4169 fdbe e7be 2ebd 3b97 0b3d 6d6b 1bbf
000000c0: bce0 8bbe e903 0eba 44a4 abbf df73 aebf
000000d0: b864 513c fa77 36bf d7a7 01bf 7695 cabd
000000e0: fd82 98bd 97ac d238 de5d 81be ae56 eebe
000000f0: 36b6 dcbe 07ed 70bd 17b9 12bf 768c efbd
00000100: 277b 0cbb a105 86be 8196 74bf 9e3f c9bc
00000110: 85ee b1bd 8d1a 6abe 5994 34bb 1943 54bf
00000120: ed1b 49bf 6465 8fbe e8d3 2abb 4b9e 5fbc
00000130: f73b e8bc 7cb6 7bbf 3236 48be 2acd 00bf
00000140: 309f e8be 25ab a5bf 40b1 0cbf 1230 8abb
00000150: e440 04bf a94e 58bf c368 bb38 3192 31bb
00000160: 149f 97be aeda 2cbf a592 95bc 9120 39be
00000170: b8d6 26bf 48d5 dbbd 8eb0 06bc ed40 2fbf

fc1.bias f4 [32]
0.0757509 0.5706271 -0.96174407 -0.09110227 -0.49818322 -0.33169463 -2.5248318 -0.58316034
-0.03571232 -0.046630427 -7.842551 9.665217 -0.5249399 2.8013964 -0.489164 -5.972256
0.10124348 -0.6073593 -0.025916385 -0.5236369 0.20071399 -0.4546582 -0.57372355 0.12669201
-0.7872121 -1.0120199 0.48507625 -0.107300445 -0.6535449 -1.9711839 -3.2536097 -1.7406534
00000000: 4a23 9b3d 9e14 123f dc34 76bf d493 babd
00000010: df11 ffbe e1d3 a9be d896 21c0 ff49 15bf
00000020: 1547 12bd 8cff 3ebd 2ef6 fac0 bba4 1a41
00000030: 7662 06bf 144a 3340 b473 fabe b91c bfc0
00000040: be58 cf3d e67b 1bbf 994e d4bc 110d 06bf
00000050: f887 4d3e f6c8 e8be 8cdf 12bf 8dbb 013e
00000060: bb86 49bf de89 81bf ea5b f83e 56c0 dbbd
00000070: b84e 27bf c14f fcbf 243b 50c0 bbcd debf

fc2.weight f4 [32, 32]
-0.26349783 -0.16231148 -0.13773587 -0.08393586 -0.12709221 -0.18851368 -0.05335996 -0.2074907
0.10353579 -0.0104221 -0.05776156 -0.1190036 -0.033346415 -0.09048577 -0.083678715 -0.08568722
-0.056849565 -0.0832427 -0.16093016 -0.048837345 -0.09011255 0.014982477 -0.14481175 -0.032750096
0.07020957 -0.17160714 -0.021674037 -0.21715714 0.024210619 -0.28554142 0.0049861586 0.024520425
-0.07339949 0.124126025 0.110143304 -0.15101956 0.034690727 -0.15869609 -0.11183769 -0.34853274
-0.06186146 0.013133184 0.0062260563 -0.08419424 0.15817185 -0.051090404 -0.2643528 -0.17752647
0.0558082 -0.078139186 0.0945028 -0.100949876 -0.008622571 -0.10569275 -0.032151446 -0.014758462
0.009351121 -0.016090253 0.009842385 -0.39819553 -0.19871753 0.06405927 0.00047897254 0.07771697
-0.20380603 0.03361523 -0.06653769 0.05750456 -0.032952785 -0.117135376 -0.17896143 -0.063566
0.024666654 -0.17635126 -0.0082572205 -0.18704823 0.05483229 -0.11283948 -0.20320114 -0.016507918
-0.16755491 0.08505395 -0.11266883 0.108558476 -0.12106693 -0.21146941 0.16416267 -0.19254045
-0.041921087 -0.23633109 0.06009106 0.0858514 -0.046998817 0.05835236 -0.0868309 -0.10836897
-0.14478257 -0.041676722 -0.07131122 -0.19729008 -0.13272324 0.16829666 -0.12961443 -0.111611
-0.14429618 -0.008559906 -0.0030260098 -1.5511408 -0.010025916 -0.0065270886 -0.08094825 -0.49550608
-0.0055020177 0.05101561 0.081809245 -0.07811874 -0.062405404 0.08917051 -0.152143 -0.11385017
-0.021614019 -0.16243728 -0.120718665 -0.15486091 0.07435942 0.016732533 -0.1952575 -0.094859764
0.012186837 -0.09389496 0.12399653 -0.004121755 -0.020671573 -0.0394752 -0.10197647 -0.011866661
-0.012593731 -0.14178821 -0.013294909 -4.747281 0.104393005 -0.3562212 0.0028064887 0.16656883
0.06517447 0.016861534 0.09736594 -0.07187772 0.035380594 -0.114964485 -0.20202243 0.039410032
-0.17112803 -0.14643116 0.0066657136 0.06868291 -0.013810087 -0.017123913 0.007642733 -0.081989534
-0.13646722 0.022466756 -0.09635271 -0.151776 0.05598771 -0.1535751 -0.20180206 0.074844666
0.061053395 0.123354025 -0.00019582955 -0.27530745 0.10979542 -0.22854891 -0.10406488 -0.09914225
0.10549293 -0.014414328 0.17018634 -0.107204214 0.09954371 0.088185415 0.20500098 -0.14490895
0.0016942725 0.018603073 -0.0726199 -0.18436079 -0.010551398 -0.10756749 -0.15703882 0.032577287
-0.7892644 -0.11628688 -0.10002137 0.009294288 -0.0012844426 -0.11911258 -0.07637466 -0.093770616
-0.052221842 0.17762104 -0.0098042255 -0.106354706 0.14633434 -0.12522872 -0.0763978 -0.19629547
-0.10722817 -0.12224026 0.13216609 -0.04059382 -0.08607006 -0.097502045 0.17856933 0.028249253
-0.07494484 -0.06985911 0.08055116 0.012388668 -0.11717903 -0.018481724 -0.15299906 -0.17083989
-0.4827797 -0.15320982 -0.04619763 0.068684876 -0.1563609 -0.029260302 -0.1436965 -0.14415553
0.1093964 -0.12492098 -0.02160471 -0.59139144 0.04263322 -0.08731291 -0.051739477 -0.2425652
-0.057612654 -0.04073417 -0.022335721 0.07889898 0.009646612 -0.11631527 -0.110214576 -0.081177756
0.014318317 0.058418438 -0.11758448 -0.03727741 -0.14796096 -0.110741936 -0.16514081 -0.030726822
00000000: 30e9 86be fb34 26be a20a 0dbe 90e6 abbd
00000010: 7624 02be bb09 41be f98f 5abd 7178 54be
00000020: 930a d43d 75c1 2abc 6397 6cbd 29b8 f3bd
00000030: 4096 08bd 9a50 b9bd bf5f abbd c87c afbd
00000040: 17db 68bd 267b aabd e0ca 24be ab09 48bd
00000050: ee8c b8bd 1079 753c 8849 14be f724 06bd
00000060: 09ca 8f3d c8b9 2fbe c08d b1bc 715e 5ebe
00000070: 5955 c63c 7c32 92be ee62 a33b 0fdf c83c
00000080: 7952 96bd c935 fe3d d092 e13d dfa4 1abe
00000090: dd17 0e3d 3a81 22be 290b e5bd e272 b2be
000000a0: 7162 7dbd 912c 573c f203 cc3b 086e acbd
000000b0: cdf7 213e 2c44 51bd 4059 87be 80c9 35be
000000c0: 2497 643d 7007 a0bd af8a c13d cfbe cebd
000000d0: af45 0dbc 7175 d8bd 3cb1 03bd 7acd 71bc
000000e0: 7235 193c b5cf 83bc f441 213c 49e0 cbbe
000000f0: 9c7c 4bbe 8231 833d 9b1e fb39 132a 9f3d
00000100: 87b2 50be 20b0 093d ea44 88bd e789 6b3d
00000110: 80f9 06bd ace4 efbd aa41 37be e42e 82bd
00000120: b911 ca3c 6d95 34be 4b49 07bc 9289 3fbe
00000130: d397 603d 6318 e7bd f613 50be 9d3b 87bc
00000140: 8493 2bbe c430 ae3d eabe e6bd e853 de3d
00000150: f0f1 f7bd 708b 58be 421a 283e 5329 45be
00000160: 72b5 2bbd c700 72be 0b22 763d dcd2 af3d
00000170: d581 40bd e202 6f3d 66d4 b1bd 8df0 ddbd
00000180: e241 14be 36b5 2abd 9e0b 92bd 6906 4abe
00000190: 9ae8 07be f655 2c3e a5b9 04be 4f94 e4bd
000001a0: 61c2 13be d93e 0cbc 0550 46bb c88b c6bf
000001b0: bd43 24bc 30e1 d5bb 32c8 a5bd f9b2 fdbe
000001c0: 454a b4bb bff5 503d 9b8b a73d b8fc 9fbd
000001d0: cf9c 7fbd 079f b63d 60cb 1bbe 472a e9bd
000001e0: e20f b1bc f555 26be 593b f7bd dc93 1ebe
000001f0: c049 983d aa12 893c 95f1 47be d645 c2bd
00000200: 4dab 473c 004c c0bd e5f1 fd3d c90f 87bb
00000210: 6e57 a9bc bfb0 21bd 0ad9 d0bd 626c 42bc
00000220: f055 4ebc ee30 11be e4d2 59bc bae9 97c0
00000230: 00cc d53d a062 b6be 11ed 373b 0591 2a3e
00000240: 317a 853d 3321 8a3c cb67 c73d a034 93bd
00000250: 3eeb 103d 8072 ebbd f8de 4ebe 6a6c 213d
00000260: 303c 2fbe 0df2 15be 0f6c da3b a0a9 8c3d
00000270: b443 62bc 7347 8cbc e46f fa3b 21ea a7bd
00000280: 10be 0bbe 340c b83c 9254 c5bd 2b6b 1bbe
00000290: 5e53 653d ca42 1dbe 33a5 4ebe 2948 993d
000002a0: 2013 7a3d 09a1 fc3d 9857 4db9 19f5 8cbe
000002b0: 6cdc e03d ba08 6abe f81f d5bd 180b cbbd
000002c0: ad0c d83d 132a 6cbc 5445 2e3e e28d dbbd
000002d0: 93dd cb3d 8e9a b43d c7eb 513e 0363 14be
000002e0: 5a12 de3a 7965 983c beb9 94bd 13c9 3cbe
000002f0: c5df 2cbc 584c dcbd c9ce 20be c36f 053d
00000300: 3b0d 4abf d127 eebd 01d8 ccbd 1247 183c
00000310: be5a a8ba 4cf1 f3bd 516a 9cbd cf0a c0bd
00000320: 92e6 55bd 4ae2 353e e7a1 20bc 7fd0 d9bd
00000330: abd8 153e f53b 00be 7376 9cbd ae01 49be
00000340: 719a dbbd 1a59 fabd 8c56 073e b545 26bd
00000350: 8045 b0bd 27af c7bd e1da 363e fa6a e73c
00000360: ae7c 99bd 4b12 8fbd 02f8 a43d d7f9 4a3c
00000370: 8ffb efbd fc66 97bc c9ab 1cbe a7f0 2ebe
00000380: e72e f7be 09e3 1cbe ba39 3dbd a8aa 8c3d
00000390: 121d 20be 4db3 efbc 2d25 13be 829d 13be
000003a0: 380b e03d 92d6 ffbd 5cfc b0bc 6e65 17bf
000003b0: 2ca0 2e3d 1cd1 b2bd c6ec 53bd 0363 78be
000003c0: 3ffb 6bbd dfd8 26bd 67f9 b6bc ca95 a13d
000003d0: d30c 1e3c b336 eebd 2eb8 e1bd 8640 a6bd
000003e0: 6097 6a3c 2c48 6f3d 22d0 f0bd 33b0 18bd
000003f0: 1483 17be abcc e2bd ac1a 29be d1b6 fbbc

fc2.bias f4 [32]
-0.112975135 -0.97889143 -0.32800263 -0.0016281141 -0.25214875 -0.5059048 -1.0743876 -0.44703302
-0.54620653 -0.4113357 -0.13370764 -0.052071963 -4.854131 -0.054428488 -1.311716 -0.0661813
-0.34893903 -0.0074837846 -0.13453746 -1.5768398 -1.174961 -0.5433811 -0.42815965 -0.3472138
-0.4263501 -0.106547676 -0.22141561 -0.37483147 -0.08209223 -1.649673 -0.35096216 -0.6854686
00000000: 825f e7bd a198 7abf f6ef a7be 7266 d5ba
00000010: a419 81be fa82 01bf 8885 89bf 83e1 e4be
00000020: 31d4 0bbf 989a d2be a8ea 08be 6949 55bd
00000030: 0b55 9bc0 68f0 5ebd 4fe6 a7bf 108a 87bd
00000040: 23a8 b2be 893a f5bb 30c4 09be e3d5 c9bf
00000050: 1f65 96bf 061b 0bbf be37 dbbe 02c6 b1be
00000060: 8f4a dabe ab35 dabd c6ba 62be e9e9 bfbe
00000070: f91f a8bd 7c28 d3bf 50b1 b3be df7a 2fbf

fc3.weight f4 [3, 32]
-0.021804543 -0.010234477 -0.07534088 0.08455985 0.04969186 0.12373493 0.12067461 -0.059112646
-0.03170059 -0.06760409 -0.0021645469 0.015357819 0.4513648 -0.0045224973 0.17113118 -0.0113534825
-0.001970139 0.013949264 -0.066328794 0.0108189145 0.07191443 0.009157278 -0.0086345505 0.0024091615
0.078133896 -0.031318992 -0.012565211 0.08097486 0.1296826 0.024187492 0.022341592 -0.060360096
0.033023432 -0.021552129 -0.009474461 0.019215338 -0.0052705095 0.027301656 0.10183999 0.012924937
0.019375645 0.04101489 0.058073483 0.06571044 0.24096622 0.022899766 -0.018090513 -0.0018456598
-0.025121888 0.0024226157 0.002904214 0.31010297 0.10998383 0.017623387 -0.095380425 0.00030147203
-0.1730559 0.030081697 0.017061818 0.0032438478 -0.04136798 0.20506258 0.0055631716 0.0081288535
-0.035383902 -0.0023143 -0.014147844 0.011576254 0.038281076 0.12571216 0.09288785 0.0929821
-0.0010015042 -0.1420808 -0.012812634 0.04548107 0.28351706 0.004247327 0.015746247 -0.0056455936
0.014225449 0.06444896 0.010872732 0.15752137 0.120055415 0.042539988 0.02230566 0.07085069
-0.0046593514 -0.01791504 0.013963545 -0.03834755 0.060060337 0.056849707 0.10439151 -0.011723005
00000000: 719f b2bc 82ae 27bc 524c 9abd b72d ad3d
00000010: b189 4b3d bd68 fd3d 4024 f73d 1a20 72bd
00000020: 7ad8 01bd 0374 8abd 12db 0dbb 5d9f 7b3c
00000030: 4919 e73e 7531 94bb 033d 2f3e f503 3abc
00000040: 731d 01bb 748b 643c 64d7 87bd d141 313c
00000050: df47 933d 6808 163c ee77 0dbc 06e3 1d3b
00000060: aa04 a03d 5848 00bd 51de 4dbc 26d6 a53d
00000070: 84cb 043e d924 c63c b705 b73c 263c 77bd
00000080: 9443 073d 178e b0bc c53a 1bbc 7c69 9d3c
00000090: 3db4 acbb b9a7 df3c 7c91 d03d 1dc3 533c
000000a0: acb9 9e3c 3bff 273d 76de 6d3d 3293 863d
000000b0: d9bf 763e 4a98 bb3c 8e32 94bc 11ea f1ba
000000c0: 6bcc cdbc bfc4 1e3b a054 3e3b d1c5 9e3e
000000d0: 343f e13d ec5e 903c d056 c3bd e40e 9e39
000000e0: 9135 31be e46d f63c 3ac5 8b3c bc96 543b
000000f0: 7971 29bd edfb 513e 444b b63b e22e 053c
00000100: b6ee 10bd 83ab 17bb 5ccc 67bc 54aa 3d3c
00000110: 9ecc 1c3d b0ba 003e fc3b be3d 666d be3d
00000120: e844 83ba a17d 11be 15ec 51bc 5c4a 3a3d
00000130: 2629 913e 292d 8b3b 46fe 803c acfe b8bb
00000140: dc11 693c d1fd 833d 8b23 323c 484d 213e
00000150: 9ddf f53d 693e 2e3d 5cba b63c 2b1a 913d
00000160: 79ad 98bb 90c2 92bc 5ac7 643c 5212 1dbd
00000170: d401 763d 3ddb 683d 37cb d53d d911 40bc

fc3.bias f4 [3]
0.027440853 0.029236048 0.027440859
00000000: a4cb e03c 7080 ef3c a7cb e03c
